node {
  name: "add/y"
  op: "Const"
  attr {
    key: "dtype"
    value {
      type: DT_FLOAT
    }
  }
  attr {
    key: "value"
    value {
      tensor {
        dtype: DT_FLOAT
        tensor_shape {
        }
        float_val: 1
      }
    }
  }
}
node {
  name: "Postprocessor/BatchMultiClassNonMaxSuppression/map/TensorArrayStack_4/range/delta"
  op: "Const"
  attr {
    key: "_class"
    value {
      list {
        s: "loc:@Postprocessor/BatchMultiClassNonMaxSuppression/map/TensorArray_9"
      }
    }
  }
  attr {
    key: "dtype"
    value {
      type: DT_INT32
    }
  }
  attr {
    key: "value"
    value {
      tensor {
        dtype: DT_INT32
        tensor_shape {
        }
        int_val: 1
      }
    }
  }
}
node {
  name: "Postprocessor/BatchMultiClassNonMaxSuppression/map/TensorArrayStack_4/range/start"
  op: "Const"
  attr {
    key: "_class"
    value {
      list {
        s: "loc:@Postprocessor/BatchMultiClassNonMaxSuppression/map/TensorArray_9"
      }
    }
  }
  attr {
    key: "dtype"
    value {
      type: DT_INT32
    }
  }
  attr {
    key: "value"
    value {
      tensor {
        dtype: DT_INT32
        tensor_shape {
        }
        int_val: 0
      }
    }
  }
}
node {
  name: "Postprocessor/BatchMultiClassNonMaxSuppression/map/TensorArrayStack_2/range/delta"
  op: "Const"
  attr {
    key: "_class"
    value {
      list {
        s: "loc:@Postprocessor/BatchMultiClassNonMaxSuppression/map/TensorArray_7"
      }
    }
  }
  attr {
    key: "dtype"
    value {
      type: DT_INT32
    }
  }
  attr {
    key: "value"
    value {
      tensor {
        dtype: DT_INT32
        tensor_shape {
        }
        int_val: 1
      }
    }
  }
}
node {
  name: "Postprocessor/BatchMultiClassNonMaxSuppression/map/TensorArrayStack_2/range/start"
  op: "Const"
  attr {
    key: "_class"
    value {
      list {
        s: "loc:@Postprocessor/BatchMultiClassNonMaxSuppression/map/TensorArray_7"
      }
    }
  }
  attr {
    key: "dtype"
    value {
      type: DT_INT32
    }
  }
  attr {
    key: "value"
    value {
      tensor {
        dtype: DT_INT32
        tensor_shape {
        }
        int_val: 0
      }
    }
  }
}
node {
  name: "Postprocessor/BatchMultiClassNonMaxSuppression/map/TensorArrayStack_1/range/delta"
  op: "Const"
  attr {
    key: "_class"
    value {
      list {
        s: "loc:@Postprocessor/BatchMultiClassNonMaxSuppression/map/TensorArray_6"
      }
    }
  }
  attr {
    key: "dtype"
    value {
      type: DT_INT32
    }
  }
  attr {
    key: "value"
    value {
      tensor {
        dtype: DT_INT32
        tensor_shape {
        }
        int_val: 1
      }
    }
  }
}
node {
  name: "Postprocessor/BatchMultiClassNonMaxSuppression/map/TensorArrayStack_1/range/start"
  op: "Const"
  attr {
    key: "_class"
    value {
      list {
        s: "loc:@Postprocessor/BatchMultiClassNonMaxSuppression/map/TensorArray_6"
      }
    }
  }
  attr {
    key: "dtype"
    value {
      type: DT_INT32
    }
  }
  attr {
    key: "value"
    value {
      tensor {
        dtype: DT_INT32
        tensor_shape {
        }
        int_val: 0
      }
    }
  }
}
node {
  name: "Postprocessor/BatchMultiClassNonMaxSuppression/map/TensorArrayStack/range/delta"
  op: "Const"
  attr {
    key: "_class"
    value {
      list {
        s: "loc:@Postprocessor/BatchMultiClassNonMaxSuppression/map/TensorArray_5"
      }
    }
  }
  attr {
    key: "dtype"
    value {
      type: DT_INT32
    }
  }
  attr {
    key: "value"
    value {
      tensor {
        dtype: DT_INT32
        tensor_shape {
        }
        int_val: 1
      }
    }
  }
}
node {
  name: "Postprocessor/BatchMultiClassNonMaxSuppression/map/TensorArrayStack/range/start"
  op: "Const"
  attr {
    key: "_class"
    value {
      list {
        s: "loc:@Postprocessor/BatchMultiClassNonMaxSuppression/map/TensorArray_5"
      }
    }
  }
  attr {
    key: "dtype"
    value {
      type: DT_INT32
    }
  }
  attr {
    key: "value"
    value {
      tensor {
        dtype: DT_INT32
        tensor_shape {
        }
        int_val: 0
      }
    }
  }
}
node {
  name: "Postprocessor/BatchMultiClassNonMaxSuppression/map/while/iteration_counter"
  op: "Const"
  attr {
    key: "dtype"
    value {
      type: DT_INT32
    }
  }
  attr {
    key: "value"
    value {
      tensor {
        dtype: DT_INT32
        tensor_shape {
        }
        int_val: 0
      }
    }
  }
}
node {
  name: "Postprocessor/BatchMultiClassNonMaxSuppression/map/while/Enter"
  op: "Enter"
  input: "Postprocessor/BatchMultiClassNonMaxSuppression/map/while/iteration_counter"
  attr {
    key: "T"
    value {
      type: DT_INT32
    }
  }
  attr {
    key: "frame_name"
    value {
      s: "Postprocessor/BatchMultiClassNonMaxSuppression/map/while/while_context"
    }
  }
  attr {
    key: "is_constant"
    value {
      b: false
    }
  }
  attr {
    key: "parallel_iterations"
    value {
      i: 32
    }
  }
}
node {
  name: "Postprocessor/BatchMultiClassNonMaxSuppression/map/while/Merge"
  op: "Merge"
  input: "Postprocessor/BatchMultiClassNonMaxSuppression/map/while/Enter"
  input: "Postprocessor/BatchMultiClassNonMaxSuppression/map/while/NextIteration"
  attr {
    key: "N"
    value {
      i: 2
    }
  }
  attr {
    key: "T"
    value {
      type: DT_INT32
    }
  }
}
node {
  name: "Postprocessor/BatchMultiClassNonMaxSuppression/map/Const"
  op: "Const"
  attr {
    key: "dtype"
    value {
      type: DT_INT32
    }
  }
  attr {
    key: "value"
    value {
      tensor {
        dtype: DT_INT32
        tensor_shape {
        }
        int_val: 0
      }
    }
  }
}
node {
  name: "Postprocessor/BatchMultiClassNonMaxSuppression/map/while/Enter_1"
  op: "Enter"
  input: "Postprocessor/BatchMultiClassNonMaxSuppression/map/Const"
  attr {
    key: "T"
    value {
      type: DT_INT32
    }
  }
  attr {
    key: "frame_name"
    value {
      s: "Postprocessor/BatchMultiClassNonMaxSuppression/map/while/while_context"
    }
  }
  attr {
    key: "is_constant"
    value {
      b: false
    }
  }
  attr {
    key: "parallel_iterations"
    value {
      i: 32
    }
  }
}
node {
  name: "Postprocessor/BatchMultiClassNonMaxSuppression/map/while/Merge_1"
  op: "Merge"
  input: "Postprocessor/BatchMultiClassNonMaxSuppression/map/while/Enter_1"
  input: "Postprocessor/BatchMultiClassNonMaxSuppression/map/while/NextIteration_1"
  attr {
    key: "N"
    value {
      i: 2
    }
  }
  attr {
    key: "T"
    value {
      type: DT_INT32
    }
  }
}
node {
  name: "Postprocessor/BatchMultiClassNonMaxSuppression/map/TensorArrayUnstack_4/range/delta"
  op: "Const"
  attr {
    key: "dtype"
    value {
      type: DT_INT32
    }
  }
  attr {
    key: "value"
    value {
      tensor {
        dtype: DT_INT32
        tensor_shape {
        }
        int_val: 1
      }
    }
  }
}
node {
  name: "Postprocessor/BatchMultiClassNonMaxSuppression/map/TensorArrayUnstack_4/range/start"
  op: "Const"
  attr {
    key: "dtype"
    value {
      type: DT_INT32
    }
  }
  attr {
    key: "value"
    value {
      tensor {
        dtype: DT_INT32
        tensor_shape {
        }
        int_val: 0
      }
    }
  }
}
node {
  name: "Postprocessor/BatchMultiClassNonMaxSuppression/map/TensorArrayUnstack_4/strided_slice/stack_2"
  op: "Const"
  attr {
    key: "dtype"
    value {
      type: DT_INT32
    }
  }
  attr {
    key: "value"
    value {
      tensor {
        dtype: DT_INT32
        tensor_shape {
          dim {
            size: 1
          }
        }
        int_val: 1
      }
    }
  }
}
node {
  name: "Postprocessor/BatchMultiClassNonMaxSuppression/map/TensorArrayUnstack_4/strided_slice/stack_1"
  op: "Const"
  attr {
    key: "dtype"
    value {
      type: DT_INT32
    }
  }
  attr {
    key: "value"
    value {
      tensor {
        dtype: DT_INT32
        tensor_shape {
          dim {
            size: 1
          }
        }
        int_val: 1
      }
    }
  }
}
node {
  name: "Postprocessor/BatchMultiClassNonMaxSuppression/map/TensorArrayUnstack_4/strided_slice/stack"
  op: "Const"
  attr {
    key: "dtype"
    value {
      type: DT_INT32
    }
  }
  attr {
    key: "value"
    value {
      tensor {
        dtype: DT_INT32
        tensor_shape {
          dim {
            size: 1
          }
        }
        int_val: 0
      }
    }
  }
}
node {
  name: "Postprocessor/BatchMultiClassNonMaxSuppression/map/TensorArrayUnstack_3/range/delta"
  op: "Const"
  attr {
    key: "dtype"
    value {
      type: DT_INT32
    }
  }
  attr {
    key: "value"
    value {
      tensor {
        dtype: DT_INT32
        tensor_shape {
        }
        int_val: 1
      }
    }
  }
}
node {
  name: "Postprocessor/BatchMultiClassNonMaxSuppression/map/TensorArrayUnstack_3/range/start"
  op: "Const"
  attr {
    key: "dtype"
    value {
      type: DT_INT32
    }
  }
  attr {
    key: "value"
    value {
      tensor {
        dtype: DT_INT32
        tensor_shape {
        }
        int_val: 0
      }
    }
  }
}
node {
  name: "Postprocessor/BatchMultiClassNonMaxSuppression/map/TensorArrayUnstack_3/strided_slice/stack_2"
  op: "Const"
  attr {
    key: "dtype"
    value {
      type: DT_INT32
    }
  }
  attr {
    key: "value"
    value {
      tensor {
        dtype: DT_INT32
        tensor_shape {
          dim {
            size: 1
          }
        }
        int_val: 1
      }
    }
  }
}
node {
  name: "Postprocessor/BatchMultiClassNonMaxSuppression/map/TensorArrayUnstack_3/strided_slice/stack_1"
  op: "Const"
  attr {
    key: "dtype"
    value {
      type: DT_INT32
    }
  }
  attr {
    key: "value"
    value {
      tensor {
        dtype: DT_INT32
        tensor_shape {
          dim {
            size: 1
          }
        }
        int_val: 1
      }
    }
  }
}
node {
  name: "Postprocessor/BatchMultiClassNonMaxSuppression/map/TensorArrayUnstack_3/strided_slice/stack"
  op: "Const"
  attr {
    key: "dtype"
    value {
      type: DT_INT32
    }
  }
  attr {
    key: "value"
    value {
      tensor {
        dtype: DT_INT32
        tensor_shape {
          dim {
            size: 1
          }
        }
        int_val: 0
      }
    }
  }
}
node {
  name: "Postprocessor/BatchMultiClassNonMaxSuppression/map/TensorArrayUnstack_1/range/delta"
  op: "Const"
  attr {
    key: "dtype"
    value {
      type: DT_INT32
    }
  }
  attr {
    key: "value"
    value {
      tensor {
        dtype: DT_INT32
        tensor_shape {
        }
        int_val: 1
      }
    }
  }
}
node {
  name: "Postprocessor/BatchMultiClassNonMaxSuppression/map/TensorArrayUnstack_1/range/start"
  op: "Const"
  attr {
    key: "dtype"
    value {
      type: DT_INT32
    }
  }
  attr {
    key: "value"
    value {
      tensor {
        dtype: DT_INT32
        tensor_shape {
        }
        int_val: 0
      }
    }
  }
}
node {
  name: "Postprocessor/BatchMultiClassNonMaxSuppression/map/TensorArrayUnstack_1/strided_slice/stack_2"
  op: "Const"
  attr {
    key: "dtype"
    value {
      type: DT_INT32
    }
  }
  attr {
    key: "value"
    value {
      tensor {
        dtype: DT_INT32
        tensor_shape {
          dim {
            size: 1
          }
        }
        int_val: 1
      }
    }
  }
}
node {
  name: "Postprocessor/BatchMultiClassNonMaxSuppression/map/TensorArrayUnstack_1/strided_slice/stack_1"
  op: "Const"
  attr {
    key: "dtype"
    value {
      type: DT_INT32
    }
  }
  attr {
    key: "value"
    value {
      tensor {
        dtype: DT_INT32
        tensor_shape {
          dim {
            size: 1
          }
        }
        int_val: 1
      }
    }
  }
}
node {
  name: "Postprocessor/BatchMultiClassNonMaxSuppression/map/TensorArrayUnstack_1/strided_slice/stack"
  op: "Const"
  attr {
    key: "dtype"
    value {
      type: DT_INT32
    }
  }
  attr {
    key: "value"
    value {
      tensor {
        dtype: DT_INT32
        tensor_shape {
          dim {
            size: 1
          }
        }
        int_val: 0
      }
    }
  }
}
node {
  name: "Postprocessor/BatchMultiClassNonMaxSuppression/map/TensorArrayUnstack/range/delta"
  op: "Const"
  attr {
    key: "dtype"
    value {
      type: DT_INT32
    }
  }
  attr {
    key: "value"
    value {
      tensor {
        dtype: DT_INT32
        tensor_shape {
        }
        int_val: 1
      }
    }
  }
}
node {
  name: "Postprocessor/BatchMultiClassNonMaxSuppression/map/TensorArrayUnstack/range/start"
  op: "Const"
  attr {
    key: "dtype"
    value {
      type: DT_INT32
    }
  }
  attr {
    key: "value"
    value {
      tensor {
        dtype: DT_INT32
        tensor_shape {
        }
        int_val: 0
      }
    }
  }
}
node {
  name: "Postprocessor/BatchMultiClassNonMaxSuppression/map/TensorArrayUnstack/strided_slice/stack_2"
  op: "Const"
  attr {
    key: "dtype"
    value {
      type: DT_INT32
    }
  }
  attr {
    key: "value"
    value {
      tensor {
        dtype: DT_INT32
        tensor_shape {
          dim {
            size: 1
          }
        }
        int_val: 1
      }
    }
  }
}
node {
  name: "Postprocessor/BatchMultiClassNonMaxSuppression/map/TensorArrayUnstack/strided_slice/stack_1"
  op: "Const"
  attr {
    key: "dtype"
    value {
      type: DT_INT32
    }
  }
  attr {
    key: "value"
    value {
      tensor {
        dtype: DT_INT32
        tensor_shape {
          dim {
            size: 1
          }
        }
        int_val: 1
      }
    }
  }
}
node {
  name: "Postprocessor/BatchMultiClassNonMaxSuppression/map/TensorArrayUnstack/strided_slice/stack"
  op: "Const"
  attr {
    key: "dtype"
    value {
      type: DT_INT32
    }
  }
  attr {
    key: "value"
    value {
      tensor {
        dtype: DT_INT32
        tensor_shape {
          dim {
            size: 1
          }
        }
        int_val: 0
      }
    }
  }
}
node {
  name: "Postprocessor/BatchMultiClassNonMaxSuppression/map/strided_slice/stack_2"
  op: "Const"
  attr {
    key: "dtype"
    value {
      type: DT_INT32
    }
  }
  attr {
    key: "value"
    value {
      tensor {
        dtype: DT_INT32
        tensor_shape {
          dim {
            size: 1
          }
        }
        int_val: 1
      }
    }
  }
}
node {
  name: "Postprocessor/BatchMultiClassNonMaxSuppression/map/strided_slice/stack_1"
  op: "Const"
  attr {
    key: "dtype"
    value {
      type: DT_INT32
    }
  }
  attr {
    key: "value"
    value {
      tensor {
        dtype: DT_INT32
        tensor_shape {
          dim {
            size: 1
          }
        }
        int_val: 1
      }
    }
  }
}
node {
  name: "Postprocessor/BatchMultiClassNonMaxSuppression/map/strided_slice/stack"
  op: "Const"
  attr {
    key: "dtype"
    value {
      type: DT_INT32
    }
  }
  attr {
    key: "value"
    value {
      tensor {
        dtype: DT_INT32
        tensor_shape {
          dim {
            size: 1
          }
        }
        int_val: 0
      }
    }
  }
}
node {
  name: "Postprocessor/BatchMultiClassNonMaxSuppression/ones/Const"
  op: "Const"
  attr {
    key: "dtype"
    value {
      type: DT_INT32
    }
  }
  attr {
    key: "value"
    value {
      tensor {
        dtype: DT_INT32
        tensor_shape {
        }
        int_val: 1
      }
    }
  }
}
node {
  name: "Postprocessor/BatchMultiClassNonMaxSuppression/strided_slice_1/stack_2"
  op: "Const"
  attr {
    key: "dtype"
    value {
      type: DT_INT32
    }
  }
  attr {
    key: "value"
    value {
      tensor {
        dtype: DT_INT32
        tensor_shape {
          dim {
            size: 1
          }
        }
        int_val: 1
      }
    }
  }
}
node {
  name: "Postprocessor/BatchMultiClassNonMaxSuppression/strided_slice_1/stack_1"
  op: "Const"
  attr {
    key: "dtype"
    value {
      type: DT_INT32
    }
  }
  attr {
    key: "value"
    value {
      tensor {
        dtype: DT_INT32
        tensor_shape {
          dim {
            size: 1
          }
        }
        int_val: 2
      }
    }
  }
}
node {
  name: "Postprocessor/BatchMultiClassNonMaxSuppression/strided_slice_1/stack"
  op: "Const"
  attr {
    key: "dtype"
    value {
      type: DT_INT32
    }
  }
  attr {
    key: "value"
    value {
      tensor {
        dtype: DT_INT32
        tensor_shape {
          dim {
            size: 1
          }
        }
        int_val: 1
      }
    }
  }
}
node {
  name: "Postprocessor/BatchMultiClassNonMaxSuppression/strided_slice/stack_2"
  op: "Const"
  attr {
    key: "dtype"
    value {
      type: DT_INT32
    }
  }
  attr {
    key: "value"
    value {
      tensor {
        dtype: DT_INT32
        tensor_shape {
          dim {
            size: 1
          }
        }
        int_val: 1
      }
    }
  }
}
node {
  name: "Postprocessor/BatchMultiClassNonMaxSuppression/strided_slice/stack_1"
  op: "Const"
  attr {
    key: "dtype"
    value {
      type: DT_INT32
    }
  }
  attr {
    key: "value"
    value {
      tensor {
        dtype: DT_INT32
        tensor_shape {
          dim {
            size: 1
          }
        }
        int_val: 1
      }
    }
  }
}
node {
  name: "Postprocessor/BatchMultiClassNonMaxSuppression/strided_slice/stack"
  op: "Const"
  attr {
    key: "dtype"
    value {
      type: DT_INT32
    }
  }
  attr {
    key: "value"
    value {
      tensor {
        dtype: DT_INT32
        tensor_shape {
          dim {
            size: 1
          }
        }
        int_val: 0
      }
    }
  }
}
node {
  name: "Postprocessor/ToFloat_2/x"
  op: "Const"
  attr {
    key: "dtype"
    value {
      type: DT_INT32
    }
  }
  attr {
    key: "value"
    value {
      tensor {
        dtype: DT_INT32
        tensor_shape {
        }
        int_val: 640
      }
    }
  }
}
node {
  name: "Postprocessor/ToFloat_2"
  op: "Cast"
  input: "Postprocessor/ToFloat_2/x"
  attr {
    key: "DstT"
    value {
      type: DT_FLOAT
    }
  }
  attr {
    key: "SrcT"
    value {
      type: DT_INT32
    }
  }
}
node {
  name: "Postprocessor/ToFloat_1/x"
  op: "Const"
  attr {
    key: "dtype"
    value {
      type: DT_INT32
    }
  }
  attr {
    key: "value"
    value {
      tensor {
        dtype: DT_INT32
        tensor_shape {
        }
        int_val: 640
      }
    }
  }
}
node {
  name: "Postprocessor/ToFloat_1"
  op: "Cast"
  input: "Postprocessor/ToFloat_1/x"
  attr {
    key: "DstT"
    value {
      type: DT_FLOAT
    }
  }
  attr {
    key: "SrcT"
    value {
      type: DT_INT32
    }
  }
}
node {
  name: "Postprocessor/Slice/size"
  op: "Const"
  attr {
    key: "dtype"
    value {
      type: DT_INT32
    }
  }
  attr {
    key: "value"
    value {
      tensor {
        dtype: DT_INT32
        tensor_shape {
          dim {
            size: 3
          }
        }
      }
    }
  }
}
node {
  name: "Postprocessor/Slice/begin"
  op: "Const"
  attr {
    key: "dtype"
    value {
      type: DT_INT32
    }
  }
  attr {
    key: "value"
    value {
      tensor {
        dtype: DT_INT32
        tensor_shape {
          dim {
            size: 3
          }
        }
      }
    }
  }
}
node {
  name: "Postprocessor/scale_logits/y"
  op: "Const"
  attr {
    key: "dtype"
    value {
      type: DT_FLOAT
    }
  }
  attr {
    key: "value"
    value {
      tensor {
        dtype: DT_FLOAT
        tensor_shape {
        }
        float_val: 1
      }
    }
  }
}
node {
  name: "Postprocessor/ExpandDims_1/dim"
  op: "Const"
  attr {
    key: "dtype"
    value {
      type: DT_INT32
    }
  }
  attr {
    key: "value"
    value {
      tensor {
        dtype: DT_INT32
        tensor_shape {
        }
        int_val: 2
      }
    }
  }
}
node {
  name: "Postprocessor/stack/2"
  op: "Const"
  attr {
    key: "dtype"
    value {
      type: DT_INT32
    }
  }
  attr {
    key: "value"
    value {
      tensor {
        dtype: DT_INT32
        tensor_shape {
        }
        int_val: 4
      }
    }
  }
}
node {
  name: "Postprocessor/Decode/transpose_1/Range/delta"
  op: "Const"
  attr {
    key: "dtype"
    value {
      type: DT_INT32
    }
  }
  attr {
    key: "value"
    value {
      tensor {
        dtype: DT_INT32
        tensor_shape {
        }
        int_val: 1
      }
    }
  }
}
node {
  name: "Postprocessor/Decode/transpose_1/Range/start"
  op: "Const"
  attr {
    key: "dtype"
    value {
      type: DT_INT32
    }
  }
  attr {
    key: "value"
    value {
      tensor {
        dtype: DT_INT32
        tensor_shape {
        }
        int_val: 0
      }
    }
  }
}
node {
  name: "Postprocessor/Decode/transpose_1/sub/y"
  op: "Const"
  attr {
    key: "dtype"
    value {
      type: DT_INT32
    }
  }
  attr {
    key: "value"
    value {
      tensor {
        dtype: DT_INT32
        tensor_shape {
        }
        int_val: 1
      }
    }
  }
}
node {
  name: "Postprocessor/Decode/truediv_7/y"
  op: "Const"
  attr {
    key: "dtype"
    value {
      type: DT_FLOAT
    }
  }
  attr {
    key: "value"
    value {
      tensor {
        dtype: DT_FLOAT
        tensor_shape {
        }
        float_val: 2
      }
    }
  }
}
node {
  name: "Postprocessor/Decode/truediv_6/y"
  op: "Const"
  attr {
    key: "dtype"
    value {
      type: DT_FLOAT
    }
  }
  attr {
    key: "value"
    value {
      tensor {
        dtype: DT_FLOAT
        tensor_shape {
        }
        float_val: 2
      }
    }
  }
}
node {
  name: "Postprocessor/Decode/truediv_5/y"
  op: "Const"
  attr {
    key: "dtype"
    value {
      type: DT_FLOAT
    }
  }
  attr {
    key: "value"
    value {
      tensor {
        dtype: DT_FLOAT
        tensor_shape {
        }
        float_val: 2
      }
    }
  }
}
node {
  name: "Postprocessor/Decode/truediv_4/y"
  op: "Const"
  attr {
    key: "dtype"
    value {
      type: DT_FLOAT
    }
  }
  attr {
    key: "value"
    value {
      tensor {
        dtype: DT_FLOAT
        tensor_shape {
        }
        float_val: 2
      }
    }
  }
}
node {
  name: "Postprocessor/Decode/truediv_3/y"
  op: "Const"
  attr {
    key: "dtype"
    value {
      type: DT_FLOAT
    }
  }
  attr {
    key: "value"
    value {
      tensor {
        dtype: DT_FLOAT
        tensor_shape {
        }
        float_val: 5
      }
    }
  }
}
node {
  name: "Postprocessor/Decode/truediv_2/y"
  op: "Const"
  attr {
    key: "dtype"
    value {
      type: DT_FLOAT
    }
  }
  attr {
    key: "value"
    value {
      tensor {
        dtype: DT_FLOAT
        tensor_shape {
        }
        float_val: 5
      }
    }
  }
}
node {
  name: "Postprocessor/Decode/truediv_1/y"
  op: "Const"
  attr {
    key: "dtype"
    value {
      type: DT_FLOAT
    }
  }
  attr {
    key: "value"
    value {
      tensor {
        dtype: DT_FLOAT
        tensor_shape {
        }
        float_val: 10
      }
    }
  }
}
node {
  name: "Postprocessor/Decode/truediv/y"
  op: "Const"
  attr {
    key: "dtype"
    value {
      type: DT_FLOAT
    }
  }
  attr {
    key: "value"
    value {
      tensor {
        dtype: DT_FLOAT
        tensor_shape {
        }
        float_val: 10
      }
    }
  }
}
node {
  name: "Postprocessor/Decode/transpose/Range/delta"
  op: "Const"
  attr {
    key: "dtype"
    value {
      type: DT_INT32
    }
  }
  attr {
    key: "value"
    value {
      tensor {
        dtype: DT_INT32
        tensor_shape {
        }
        int_val: 1
      }
    }
  }
}
node {
  name: "Postprocessor/Decode/transpose/Range/start"
  op: "Const"
  attr {
    key: "dtype"
    value {
      type: DT_INT32
    }
  }
  attr {
    key: "value"
    value {
      tensor {
        dtype: DT_INT32
        tensor_shape {
        }
        int_val: 0
      }
    }
  }
}
node {
  name: "Postprocessor/Decode/transpose/sub/y"
  op: "Const"
  attr {
    key: "dtype"
    value {
      type: DT_INT32
    }
  }
  attr {
    key: "value"
    value {
      tensor {
        dtype: DT_INT32
        tensor_shape {
        }
        int_val: 1
      }
    }
  }
}
node {
  name: "Postprocessor/Decode/get_center_coordinates_and_sizes/truediv_1/y"
  op: "Const"
  attr {
    key: "dtype"
    value {
      type: DT_FLOAT
    }
  }
  attr {
    key: "value"
    value {
      tensor {
        dtype: DT_FLOAT
        tensor_shape {
        }
        float_val: 2
      }
    }
  }
}
node {
  name: "Postprocessor/Decode/get_center_coordinates_and_sizes/truediv/y"
  op: "Const"
  attr {
    key: "dtype"
    value {
      type: DT_FLOAT
    }
  }
  attr {
    key: "value"
    value {
      tensor {
        dtype: DT_FLOAT
        tensor_shape {
        }
        float_val: 2
      }
    }
  }
}
node {
  name: "Postprocessor/Decode/get_center_coordinates_and_sizes/transpose/Range/delta"
  op: "Const"
  attr {
    key: "dtype"
    value {
      type: DT_INT32
    }
  }
  attr {
    key: "value"
    value {
      tensor {
        dtype: DT_INT32
        tensor_shape {
        }
        int_val: 1
      }
    }
  }
}
node {
  name: "Postprocessor/Decode/get_center_coordinates_and_sizes/transpose/Range/start"
  op: "Const"
  attr {
    key: "dtype"
    value {
      type: DT_INT32
    }
  }
  attr {
    key: "value"
    value {
      tensor {
        dtype: DT_INT32
        tensor_shape {
        }
        int_val: 0
      }
    }
  }
}
node {
  name: "Postprocessor/Decode/get_center_coordinates_and_sizes/transpose/sub/y"
  op: "Const"
  attr {
    key: "dtype"
    value {
      type: DT_INT32
    }
  }
  attr {
    key: "value"
    value {
      tensor {
        dtype: DT_INT32
        tensor_shape {
        }
        int_val: 1
      }
    }
  }
}
node {
  name: "Postprocessor/Reshape_1/shape"
  op: "Const"
  attr {
    key: "dtype"
    value {
      type: DT_INT32
    }
  }
  attr {
    key: "value"
    value {
      tensor {
        dtype: DT_INT32
        tensor_shape {
          dim {
            size: 2
          }
        }
      }
    }
  }
}
node {
  name: "Postprocessor/Reshape/shape"
  op: "Const"
  attr {
    key: "dtype"
    value {
      type: DT_INT32
    }
  }
  attr {
    key: "value"
    value {
      tensor {
        dtype: DT_INT32
        tensor_shape {
          dim {
            size: 2
          }
        }
      }
    }
  }
}
node {
  name: "Postprocessor/Tile/multiples/2"
  op: "Const"
  attr {
    key: "dtype"
    value {
      type: DT_INT32
    }
  }
  attr {
    key: "value"
    value {
      tensor {
        dtype: DT_INT32
        tensor_shape {
        }
        int_val: 1
      }
    }
  }
}
node {
  name: "Postprocessor/Tile/multiples/1"
  op: "Const"
  attr {
    key: "dtype"
    value {
      type: DT_INT32
    }
  }
  attr {
    key: "value"
    value {
      tensor {
        dtype: DT_INT32
        tensor_shape {
        }
        int_val: 1
      }
    }
  }
}
node {
  name: "Postprocessor/ExpandDims/dim"
  op: "Const"
  attr {
    key: "dtype"
    value {
      type: DT_INT32
    }
  }
  attr {
    key: "value"
    value {
      tensor {
        dtype: DT_INT32
        tensor_shape {
        }
        int_val: 0
      }
    }
  }
}
node {
  name: "Postprocessor/strided_slice_1/stack_2"
  op: "Const"
  attr {
    key: "dtype"
    value {
      type: DT_INT32
    }
  }
  attr {
    key: "value"
    value {
      tensor {
        dtype: DT_INT32
        tensor_shape {
          dim {
            size: 1
          }
        }
        int_val: 1
      }
    }
  }
}
node {
  name: "Postprocessor/strided_slice_1/stack_1"
  op: "Const"
  attr {
    key: "dtype"
    value {
      type: DT_INT32
    }
  }
  attr {
    key: "value"
    value {
      tensor {
        dtype: DT_INT32
        tensor_shape {
          dim {
            size: 1
          }
        }
        int_val: 2
      }
    }
  }
}
node {
  name: "Postprocessor/strided_slice_1/stack"
  op: "Const"
  attr {
    key: "dtype"
    value {
      type: DT_INT32
    }
  }
  attr {
    key: "value"
    value {
      tensor {
        dtype: DT_INT32
        tensor_shape {
          dim {
            size: 1
          }
        }
        int_val: 1
      }
    }
  }
}
node {
  name: "Postprocessor/strided_slice/stack_2"
  op: "Const"
  attr {
    key: "dtype"
    value {
      type: DT_INT32
    }
  }
  attr {
    key: "value"
    value {
      tensor {
        dtype: DT_INT32
        tensor_shape {
          dim {
            size: 1
          }
        }
        int_val: 1
      }
    }
  }
}
node {
  name: "Postprocessor/strided_slice/stack_1"
  op: "Const"
  attr {
    key: "dtype"
    value {
      type: DT_INT32
    }
  }
  attr {
    key: "value"
    value {
      tensor {
        dtype: DT_INT32
        tensor_shape {
          dim {
            size: 1
          }
        }
        int_val: 1
      }
    }
  }
}
node {
  name: "Postprocessor/strided_slice/stack"
  op: "Const"
  attr {
    key: "dtype"
    value {
      type: DT_INT32
    }
  }
  attr {
    key: "value"
    value {
      tensor {
        dtype: DT_INT32
        tensor_shape {
          dim {
            size: 1
          }
        }
        int_val: 0
      }
    }
  }
}
node {
  name: "concat_1/axis"
  op: "Const"
  attr {
    key: "dtype"
    value {
      type: DT_INT32
    }
  }
  attr {
    key: "value"
    value {
      tensor {
        dtype: DT_INT32
        tensor_shape {
        }
        int_val: 1
      }
    }
  }
}
node {
  name: "concat/axis"
  op: "Const"
  attr {
    key: "dtype"
    value {
      type: DT_INT32
    }
  }
  attr {
    key: "value"
    value {
      tensor {
        dtype: DT_INT32
        tensor_shape {
        }
        int_val: 1
      }
    }
  }
}
node {
  name: "WeightSharedConvolutionalBoxPredictor_4/Reshape_1/shape/2"
  op: "Const"
  attr {
    key: "dtype"
    value {
      type: DT_INT32
    }
  }
  attr {
    key: "value"
    value {
      tensor {
        dtype: DT_INT32
        tensor_shape {
        }
        int_val: 2
      }
    }
  }
}
node {
  name: "WeightSharedConvolutionalBoxPredictor_4/Reshape_1/shape/1"
  op: "Const"
  attr {
    key: "dtype"
    value {
      type: DT_INT32
    }
  }
  attr {
    key: "value"
    value {
      tensor {
        dtype: DT_INT32
        tensor_shape {
        }
        int_val: -1
      }
    }
  }
}
node {
  name: "WeightSharedConvolutionalBoxPredictor_4/strided_slice_1/stack_2"
  op: "Const"
  attr {
    key: "dtype"
    value {
      type: DT_INT32
    }
  }
  attr {
    key: "value"
    value {
      tensor {
        dtype: DT_INT32
        tensor_shape {
          dim {
            size: 1
          }
        }
        int_val: 1
      }
    }
  }
}
node {
  name: "WeightSharedConvolutionalBoxPredictor_4/strided_slice_1/stack_1"
  op: "Const"
  attr {
    key: "dtype"
    value {
      type: DT_INT32
    }
  }
  attr {
    key: "value"
    value {
      tensor {
        dtype: DT_INT32
        tensor_shape {
          dim {
            size: 1
          }
        }
        int_val: 1
      }
    }
  }
}
node {
  name: "WeightSharedConvolutionalBoxPredictor_4/strided_slice_1/stack"
  op: "Const"
  attr {
    key: "dtype"
    value {
      type: DT_INT32
    }
  }
  attr {
    key: "value"
    value {
      tensor {
        dtype: DT_INT32
        tensor_shape {
          dim {
            size: 1
          }
        }
        int_val: 0
      }
    }
  }
}
node {
  name: "WeightSharedConvolutionalBoxPredictor/ClassPredictionTower/conv2d_3/BatchNorm/feature_4/moving_variance"
  op: "Const"
  attr {
    key: "dtype"
    value {
      type: DT_FLOAT
    }
  }
  attr {
    key: "value"
    value {
      tensor {
        dtype: DT_FLOAT
        tensor_shape {
          dim {
            size: 256
          }
        }
      }
    }
  }
}
node {
  name: "WeightSharedConvolutionalBoxPredictor/ClassPredictionTower/conv2d_3/BatchNorm/feature_4/moving_variance/read"
  op: "Identity"
  input: "WeightSharedConvolutionalBoxPredictor/ClassPredictionTower/conv2d_3/BatchNorm/feature_4/moving_variance"
  attr {
    key: "T"
    value {
      type: DT_FLOAT
    }
  }
  attr {
    key: "_class"
    value {
      list {
        s: "loc:@WeightSharedConvolutionalBoxPredictor/ClassPredictionTower/conv2d_3/BatchNorm/feature_4/moving_variance"
      }
    }
  }
}
node {
  name: "WeightSharedConvolutionalBoxPredictor/ClassPredictionTower/conv2d_3/BatchNorm/feature_4/moving_mean"
  op: "Const"
  attr {
    key: "dtype"
    value {
      type: DT_FLOAT
    }
  }
  attr {
    key: "value"
    value {
      tensor {
        dtype: DT_FLOAT
        tensor_shape {
          dim {
            size: 256
          }
        }
      }
    }
  }
}
node {
  name: "WeightSharedConvolutionalBoxPredictor/ClassPredictionTower/conv2d_3/BatchNorm/feature_4/moving_mean/read"
  op: "Identity"
  input: "WeightSharedConvolutionalBoxPredictor/ClassPredictionTower/conv2d_3/BatchNorm/feature_4/moving_mean"
  attr {
    key: "T"
    value {
      type: DT_FLOAT
    }
  }
  attr {
    key: "_class"
    value {
      list {
        s: "loc:@WeightSharedConvolutionalBoxPredictor/ClassPredictionTower/conv2d_3/BatchNorm/feature_4/moving_mean"
      }
    }
  }
}
node {
  name: "WeightSharedConvolutionalBoxPredictor/ClassPredictionTower/conv2d_3/BatchNorm/feature_4/gamma"
  op: "Const"
  attr {
    key: "dtype"
    value {
      type: DT_FLOAT
    }
  }
  attr {
    key: "value"
    value {
      tensor {
        dtype: DT_FLOAT
        tensor_shape {
          dim {
            size: 256
          }
        }
      }
    }
  }
}
node {
  name: "WeightSharedConvolutionalBoxPredictor/ClassPredictionTower/conv2d_3/BatchNorm/feature_4/gamma/read"
  op: "Identity"
  input: "WeightSharedConvolutionalBoxPredictor/ClassPredictionTower/conv2d_3/BatchNorm/feature_4/gamma"
  attr {
    key: "T"
    value {
      type: DT_FLOAT
    }
  }
  attr {
    key: "_class"
    value {
      list {
        s: "loc:@WeightSharedConvolutionalBoxPredictor/ClassPredictionTower/conv2d_3/BatchNorm/feature_4/gamma"
      }
    }
  }
}
node {
  name: "WeightSharedConvolutionalBoxPredictor/ClassPredictionTower/conv2d_3/BatchNorm/feature_4/beta"
  op: "Const"
  attr {
    key: "dtype"
    value {
      type: DT_FLOAT
    }
  }
  attr {
    key: "value"
    value {
      tensor {
        dtype: DT_FLOAT
        tensor_shape {
          dim {
            size: 256
          }
        }
      }
    }
  }
}
node {
  name: "WeightSharedConvolutionalBoxPredictor/ClassPredictionTower/conv2d_3/BatchNorm/feature_4/beta/read"
  op: "Identity"
  input: "WeightSharedConvolutionalBoxPredictor/ClassPredictionTower/conv2d_3/BatchNorm/feature_4/beta"
  attr {
    key: "T"
    value {
      type: DT_FLOAT
    }
  }
  attr {
    key: "_class"
    value {
      list {
        s: "loc:@WeightSharedConvolutionalBoxPredictor/ClassPredictionTower/conv2d_3/BatchNorm/feature_4/beta"
      }
    }
  }
}
node {
  name: "WeightSharedConvolutionalBoxPredictor/ClassPredictionTower/conv2d_2/BatchNorm/feature_4/moving_variance"
  op: "Const"
  attr {
    key: "dtype"
    value {
      type: DT_FLOAT
    }
  }
  attr {
    key: "value"
    value {
      tensor {
        dtype: DT_FLOAT
        tensor_shape {
          dim {
            size: 256
          }
        }
      }
    }
  }
}
node {
  name: "WeightSharedConvolutionalBoxPredictor/ClassPredictionTower/conv2d_2/BatchNorm/feature_4/moving_variance/read"
  op: "Identity"
  input: "WeightSharedConvolutionalBoxPredictor/ClassPredictionTower/conv2d_2/BatchNorm/feature_4/moving_variance"
  attr {
    key: "T"
    value {
      type: DT_FLOAT
    }
  }
  attr {
    key: "_class"
    value {
      list {
        s: "loc:@WeightSharedConvolutionalBoxPredictor/ClassPredictionTower/conv2d_2/BatchNorm/feature_4/moving_variance"
      }
    }
  }
}
node {
  name: "WeightSharedConvolutionalBoxPredictor/ClassPredictionTower/conv2d_2/BatchNorm/feature_4/moving_mean"
  op: "Const"
  attr {
    key: "dtype"
    value {
      type: DT_FLOAT
    }
  }
  attr {
    key: "value"
    value {
      tensor {
        dtype: DT_FLOAT
        tensor_shape {
          dim {
            size: 256
          }
        }
      }
    }
  }
}
node {
  name: "WeightSharedConvolutionalBoxPredictor/ClassPredictionTower/conv2d_2/BatchNorm/feature_4/moving_mean/read"
  op: "Identity"
  input: "WeightSharedConvolutionalBoxPredictor/ClassPredictionTower/conv2d_2/BatchNorm/feature_4/moving_mean"
  attr {
    key: "T"
    value {
      type: DT_FLOAT
    }
  }
  attr {
    key: "_class"
    value {
      list {
        s: "loc:@WeightSharedConvolutionalBoxPredictor/ClassPredictionTower/conv2d_2/BatchNorm/feature_4/moving_mean"
      }
    }
  }
}
node {
  name: "WeightSharedConvolutionalBoxPredictor/ClassPredictionTower/conv2d_2/BatchNorm/feature_4/gamma"
  op: "Const"
  attr {
    key: "dtype"
    value {
      type: DT_FLOAT
    }
  }
  attr {
    key: "value"
    value {
      tensor {
        dtype: DT_FLOAT
        tensor_shape {
          dim {
            size: 256
          }
        }
      }
    }
  }
}
node {
  name: "WeightSharedConvolutionalBoxPredictor/ClassPredictionTower/conv2d_2/BatchNorm/feature_4/gamma/read"
  op: "Identity"
  input: "WeightSharedConvolutionalBoxPredictor/ClassPredictionTower/conv2d_2/BatchNorm/feature_4/gamma"
  attr {
    key: "T"
    value {
      type: DT_FLOAT
    }
  }
  attr {
    key: "_class"
    value {
      list {
        s: "loc:@WeightSharedConvolutionalBoxPredictor/ClassPredictionTower/conv2d_2/BatchNorm/feature_4/gamma"
      }
    }
  }
}
node {
  name: "WeightSharedConvolutionalBoxPredictor/ClassPredictionTower/conv2d_2/BatchNorm/feature_4/beta"
  op: "Const"
  attr {
    key: "dtype"
    value {
      type: DT_FLOAT
    }
  }
  attr {
    key: "value"
    value {
      tensor {
        dtype: DT_FLOAT
        tensor_shape {
          dim {
            size: 256
          }
        }
      }
    }
  }
}
node {
  name: "WeightSharedConvolutionalBoxPredictor/ClassPredictionTower/conv2d_2/BatchNorm/feature_4/beta/read"
  op: "Identity"
  input: "WeightSharedConvolutionalBoxPredictor/ClassPredictionTower/conv2d_2/BatchNorm/feature_4/beta"
  attr {
    key: "T"
    value {
      type: DT_FLOAT
    }
  }
  attr {
    key: "_class"
    value {
      list {
        s: "loc:@WeightSharedConvolutionalBoxPredictor/ClassPredictionTower/conv2d_2/BatchNorm/feature_4/beta"
      }
    }
  }
}
node {
  name: "WeightSharedConvolutionalBoxPredictor/ClassPredictionTower/conv2d_1/BatchNorm/feature_4/moving_variance"
  op: "Const"
  attr {
    key: "dtype"
    value {
      type: DT_FLOAT
    }
  }
  attr {
    key: "value"
    value {
      tensor {
        dtype: DT_FLOAT
        tensor_shape {
          dim {
            size: 256
          }
        }
      }
    }
  }
}
node {
  name: "WeightSharedConvolutionalBoxPredictor/ClassPredictionTower/conv2d_1/BatchNorm/feature_4/moving_variance/read"
  op: "Identity"
  input: "WeightSharedConvolutionalBoxPredictor/ClassPredictionTower/conv2d_1/BatchNorm/feature_4/moving_variance"
  attr {
    key: "T"
    value {
      type: DT_FLOAT
    }
  }
  attr {
    key: "_class"
    value {
      list {
        s: "loc:@WeightSharedConvolutionalBoxPredictor/ClassPredictionTower/conv2d_1/BatchNorm/feature_4/moving_variance"
      }
    }
  }
}
node {
  name: "WeightSharedConvolutionalBoxPredictor/ClassPredictionTower/conv2d_1/BatchNorm/feature_4/moving_mean"
  op: "Const"
  attr {
    key: "dtype"
    value {
      type: DT_FLOAT
    }
  }
  attr {
    key: "value"
    value {
      tensor {
        dtype: DT_FLOAT
        tensor_shape {
          dim {
            size: 256
          }
        }
      }
    }
  }
}
node {
  name: "WeightSharedConvolutionalBoxPredictor/ClassPredictionTower/conv2d_1/BatchNorm/feature_4/moving_mean/read"
  op: "Identity"
  input: "WeightSharedConvolutionalBoxPredictor/ClassPredictionTower/conv2d_1/BatchNorm/feature_4/moving_mean"
  attr {
    key: "T"
    value {
      type: DT_FLOAT
    }
  }
  attr {
    key: "_class"
    value {
      list {
        s: "loc:@WeightSharedConvolutionalBoxPredictor/ClassPredictionTower/conv2d_1/BatchNorm/feature_4/moving_mean"
      }
    }
  }
}
node {
  name: "WeightSharedConvolutionalBoxPredictor/ClassPredictionTower/conv2d_1/BatchNorm/feature_4/gamma"
  op: "Const"
  attr {
    key: "dtype"
    value {
      type: DT_FLOAT
    }
  }
  attr {
    key: "value"
    value {
      tensor {
        dtype: DT_FLOAT
        tensor_shape {
          dim {
            size: 256
          }
        }
      }
    }
  }
}
node {
  name: "WeightSharedConvolutionalBoxPredictor/ClassPredictionTower/conv2d_1/BatchNorm/feature_4/gamma/read"
  op: "Identity"
  input: "WeightSharedConvolutionalBoxPredictor/ClassPredictionTower/conv2d_1/BatchNorm/feature_4/gamma"
  attr {
    key: "T"
    value {
      type: DT_FLOAT
    }
  }
  attr {
    key: "_class"
    value {
      list {
        s: "loc:@WeightSharedConvolutionalBoxPredictor/ClassPredictionTower/conv2d_1/BatchNorm/feature_4/gamma"
      }
    }
  }
}
node {
  name: "WeightSharedConvolutionalBoxPredictor/ClassPredictionTower/conv2d_1/BatchNorm/feature_4/beta"
  op: "Const"
  attr {
    key: "dtype"
    value {
      type: DT_FLOAT
    }
  }
  attr {
    key: "value"
    value {
      tensor {
        dtype: DT_FLOAT
        tensor_shape {
          dim {
            size: 256
          }
        }
      }
    }
  }
}
node {
  name: "WeightSharedConvolutionalBoxPredictor/ClassPredictionTower/conv2d_1/BatchNorm/feature_4/beta/read"
  op: "Identity"
  input: "WeightSharedConvolutionalBoxPredictor/ClassPredictionTower/conv2d_1/BatchNorm/feature_4/beta"
  attr {
    key: "T"
    value {
      type: DT_FLOAT
    }
  }
  attr {
    key: "_class"
    value {
      list {
        s: "loc:@WeightSharedConvolutionalBoxPredictor/ClassPredictionTower/conv2d_1/BatchNorm/feature_4/beta"
      }
    }
  }
}
node {
  name: "WeightSharedConvolutionalBoxPredictor/ClassPredictionTower/conv2d_0/BatchNorm/feature_4/moving_variance"
  op: "Const"
  attr {
    key: "dtype"
    value {
      type: DT_FLOAT
    }
  }
  attr {
    key: "value"
    value {
      tensor {
        dtype: DT_FLOAT
        tensor_shape {
          dim {
            size: 256
          }
        }
      }
    }
  }
}
node {
  name: "WeightSharedConvolutionalBoxPredictor/ClassPredictionTower/conv2d_0/BatchNorm/feature_4/moving_variance/read"
  op: "Identity"
  input: "WeightSharedConvolutionalBoxPredictor/ClassPredictionTower/conv2d_0/BatchNorm/feature_4/moving_variance"
  attr {
    key: "T"
    value {
      type: DT_FLOAT
    }
  }
  attr {
    key: "_class"
    value {
      list {
        s: "loc:@WeightSharedConvolutionalBoxPredictor/ClassPredictionTower/conv2d_0/BatchNorm/feature_4/moving_variance"
      }
    }
  }
}
node {
  name: "WeightSharedConvolutionalBoxPredictor/ClassPredictionTower/conv2d_0/BatchNorm/feature_4/moving_mean"
  op: "Const"
  attr {
    key: "dtype"
    value {
      type: DT_FLOAT
    }
  }
  attr {
    key: "value"
    value {
      tensor {
        dtype: DT_FLOAT
        tensor_shape {
          dim {
            size: 256
          }
        }
      }
    }
  }
}
node {
  name: "WeightSharedConvolutionalBoxPredictor/ClassPredictionTower/conv2d_0/BatchNorm/feature_4/moving_mean/read"
  op: "Identity"
  input: "WeightSharedConvolutionalBoxPredictor/ClassPredictionTower/conv2d_0/BatchNorm/feature_4/moving_mean"
  attr {
    key: "T"
    value {
      type: DT_FLOAT
    }
  }
  attr {
    key: "_class"
    value {
      list {
        s: "loc:@WeightSharedConvolutionalBoxPredictor/ClassPredictionTower/conv2d_0/BatchNorm/feature_4/moving_mean"
      }
    }
  }
}
node {
  name: "WeightSharedConvolutionalBoxPredictor/ClassPredictionTower/conv2d_0/BatchNorm/feature_4/gamma"
  op: "Const"
  attr {
    key: "dtype"
    value {
      type: DT_FLOAT
    }
  }
  attr {
    key: "value"
    value {
      tensor {
        dtype: DT_FLOAT
        tensor_shape {
          dim {
            size: 256
          }
        }
      }
    }
  }
}
node {
  name: "WeightSharedConvolutionalBoxPredictor/ClassPredictionTower/conv2d_0/BatchNorm/feature_4/gamma/read"
  op: "Identity"
  input: "WeightSharedConvolutionalBoxPredictor/ClassPredictionTower/conv2d_0/BatchNorm/feature_4/gamma"
  attr {
    key: "T"
    value {
      type: DT_FLOAT
    }
  }
  attr {
    key: "_class"
    value {
      list {
        s: "loc:@WeightSharedConvolutionalBoxPredictor/ClassPredictionTower/conv2d_0/BatchNorm/feature_4/gamma"
      }
    }
  }
}
node {
  name: "WeightSharedConvolutionalBoxPredictor/ClassPredictionTower/conv2d_0/BatchNorm/feature_4/beta"
  op: "Const"
  attr {
    key: "dtype"
    value {
      type: DT_FLOAT
    }
  }
  attr {
    key: "value"
    value {
      tensor {
        dtype: DT_FLOAT
        tensor_shape {
          dim {
            size: 256
          }
        }
      }
    }
  }
}
node {
  name: "WeightSharedConvolutionalBoxPredictor/ClassPredictionTower/conv2d_0/BatchNorm/feature_4/beta/read"
  op: "Identity"
  input: "WeightSharedConvolutionalBoxPredictor/ClassPredictionTower/conv2d_0/BatchNorm/feature_4/beta"
  attr {
    key: "T"
    value {
      type: DT_FLOAT
    }
  }
  attr {
    key: "_class"
    value {
      list {
        s: "loc:@WeightSharedConvolutionalBoxPredictor/ClassPredictionTower/conv2d_0/BatchNorm/feature_4/beta"
      }
    }
  }
}
node {
  name: "WeightSharedConvolutionalBoxPredictor_4/Reshape/shape/2"
  op: "Const"
  attr {
    key: "dtype"
    value {
      type: DT_INT32
    }
  }
  attr {
    key: "value"
    value {
      tensor {
        dtype: DT_INT32
        tensor_shape {
        }
        int_val: 4
      }
    }
  }
}
node {
  name: "WeightSharedConvolutionalBoxPredictor_4/Reshape/shape/1"
  op: "Const"
  attr {
    key: "dtype"
    value {
      type: DT_INT32
    }
  }
  attr {
    key: "value"
    value {
      tensor {
        dtype: DT_INT32
        tensor_shape {
        }
        int_val: -1
      }
    }
  }
}
node {
  name: "WeightSharedConvolutionalBoxPredictor_4/strided_slice/stack_2"
  op: "Const"
  attr {
    key: "dtype"
    value {
      type: DT_INT32
    }
  }
  attr {
    key: "value"
    value {
      tensor {
        dtype: DT_INT32
        tensor_shape {
          dim {
            size: 1
          }
        }
        int_val: 1
      }
    }
  }
}
node {
  name: "WeightSharedConvolutionalBoxPredictor_4/strided_slice/stack_1"
  op: "Const"
  attr {
    key: "dtype"
    value {
      type: DT_INT32
    }
  }
  attr {
    key: "value"
    value {
      tensor {
        dtype: DT_INT32
        tensor_shape {
          dim {
            size: 1
          }
        }
        int_val: 1
      }
    }
  }
}
node {
  name: "WeightSharedConvolutionalBoxPredictor_4/strided_slice/stack"
  op: "Const"
  attr {
    key: "dtype"
    value {
      type: DT_INT32
    }
  }
  attr {
    key: "value"
    value {
      tensor {
        dtype: DT_INT32
        tensor_shape {
          dim {
            size: 1
          }
        }
        int_val: 0
      }
    }
  }
}
node {
  name: "WeightSharedConvolutionalBoxPredictor/BoxPredictionTower/conv2d_3/BatchNorm/feature_4/moving_variance"
  op: "Const"
  attr {
    key: "dtype"
    value {
      type: DT_FLOAT
    }
  }
  attr {
    key: "value"
    value {
      tensor {
        dtype: DT_FLOAT
        tensor_shape {
          dim {
            size: 256
          }
        }
      }
    }
  }
}
node {
  name: "WeightSharedConvolutionalBoxPredictor/BoxPredictionTower/conv2d_3/BatchNorm/feature_4/moving_variance/read"
  op: "Identity"
  input: "WeightSharedConvolutionalBoxPredictor/BoxPredictionTower/conv2d_3/BatchNorm/feature_4/moving_variance"
  attr {
    key: "T"
    value {
      type: DT_FLOAT
    }
  }
  attr {
    key: "_class"
    value {
      list {
        s: "loc:@WeightSharedConvolutionalBoxPredictor/BoxPredictionTower/conv2d_3/BatchNorm/feature_4/moving_variance"
      }
    }
  }
}
node {
  name: "WeightSharedConvolutionalBoxPredictor/BoxPredictionTower/conv2d_3/BatchNorm/feature_4/moving_mean"
  op: "Const"
  attr {
    key: "dtype"
    value {
      type: DT_FLOAT
    }
  }
  attr {
    key: "value"
    value {
      tensor {
        dtype: DT_FLOAT
        tensor_shape {
          dim {
            size: 256
          }
        }
      }
    }
  }
}
node {
  name: "WeightSharedConvolutionalBoxPredictor/BoxPredictionTower/conv2d_3/BatchNorm/feature_4/moving_mean/read"
  op: "Identity"
  input: "WeightSharedConvolutionalBoxPredictor/BoxPredictionTower/conv2d_3/BatchNorm/feature_4/moving_mean"
  attr {
    key: "T"
    value {
      type: DT_FLOAT
    }
  }
  attr {
    key: "_class"
    value {
      list {
        s: "loc:@WeightSharedConvolutionalBoxPredictor/BoxPredictionTower/conv2d_3/BatchNorm/feature_4/moving_mean"
      }
    }
  }
}
node {
  name: "WeightSharedConvolutionalBoxPredictor/BoxPredictionTower/conv2d_3/BatchNorm/feature_4/gamma"
  op: "Const"
  attr {
    key: "dtype"
    value {
      type: DT_FLOAT
    }
  }
  attr {
    key: "value"
    value {
      tensor {
        dtype: DT_FLOAT
        tensor_shape {
          dim {
            size: 256
          }
        }
      }
    }
  }
}
node {
  name: "WeightSharedConvolutionalBoxPredictor/BoxPredictionTower/conv2d_3/BatchNorm/feature_4/gamma/read"
  op: "Identity"
  input: "WeightSharedConvolutionalBoxPredictor/BoxPredictionTower/conv2d_3/BatchNorm/feature_4/gamma"
  attr {
    key: "T"
    value {
      type: DT_FLOAT
    }
  }
  attr {
    key: "_class"
    value {
      list {
        s: "loc:@WeightSharedConvolutionalBoxPredictor/BoxPredictionTower/conv2d_3/BatchNorm/feature_4/gamma"
      }
    }
  }
}
node {
  name: "WeightSharedConvolutionalBoxPredictor/BoxPredictionTower/conv2d_3/BatchNorm/feature_4/beta"
  op: "Const"
  attr {
    key: "dtype"
    value {
      type: DT_FLOAT
    }
  }
  attr {
    key: "value"
    value {
      tensor {
        dtype: DT_FLOAT
        tensor_shape {
          dim {
            size: 256
          }
        }
      }
    }
  }
}
node {
  name: "WeightSharedConvolutionalBoxPredictor/BoxPredictionTower/conv2d_3/BatchNorm/feature_4/beta/read"
  op: "Identity"
  input: "WeightSharedConvolutionalBoxPredictor/BoxPredictionTower/conv2d_3/BatchNorm/feature_4/beta"
  attr {
    key: "T"
    value {
      type: DT_FLOAT
    }
  }
  attr {
    key: "_class"
    value {
      list {
        s: "loc:@WeightSharedConvolutionalBoxPredictor/BoxPredictionTower/conv2d_3/BatchNorm/feature_4/beta"
      }
    }
  }
}
node {
  name: "WeightSharedConvolutionalBoxPredictor/BoxPredictionTower/conv2d_2/BatchNorm/feature_4/moving_variance"
  op: "Const"
  attr {
    key: "dtype"
    value {
      type: DT_FLOAT
    }
  }
  attr {
    key: "value"
    value {
      tensor {
        dtype: DT_FLOAT
        tensor_shape {
          dim {
            size: 256
          }
        }
      }
    }
  }
}
node {
  name: "WeightSharedConvolutionalBoxPredictor/BoxPredictionTower/conv2d_2/BatchNorm/feature_4/moving_variance/read"
  op: "Identity"
  input: "WeightSharedConvolutionalBoxPredictor/BoxPredictionTower/conv2d_2/BatchNorm/feature_4/moving_variance"
  attr {
    key: "T"
    value {
      type: DT_FLOAT
    }
  }
  attr {
    key: "_class"
    value {
      list {
        s: "loc:@WeightSharedConvolutionalBoxPredictor/BoxPredictionTower/conv2d_2/BatchNorm/feature_4/moving_variance"
      }
    }
  }
}
node {
  name: "WeightSharedConvolutionalBoxPredictor/BoxPredictionTower/conv2d_2/BatchNorm/feature_4/moving_mean"
  op: "Const"
  attr {
    key: "dtype"
    value {
      type: DT_FLOAT
    }
  }
  attr {
    key: "value"
    value {
      tensor {
        dtype: DT_FLOAT
        tensor_shape {
          dim {
            size: 256
          }
        }
      }
    }
  }
}
node {
  name: "WeightSharedConvolutionalBoxPredictor/BoxPredictionTower/conv2d_2/BatchNorm/feature_4/moving_mean/read"
  op: "Identity"
  input: "WeightSharedConvolutionalBoxPredictor/BoxPredictionTower/conv2d_2/BatchNorm/feature_4/moving_mean"
  attr {
    key: "T"
    value {
      type: DT_FLOAT
    }
  }
  attr {
    key: "_class"
    value {
      list {
        s: "loc:@WeightSharedConvolutionalBoxPredictor/BoxPredictionTower/conv2d_2/BatchNorm/feature_4/moving_mean"
      }
    }
  }
}
node {
  name: "WeightSharedConvolutionalBoxPredictor/BoxPredictionTower/conv2d_2/BatchNorm/feature_4/gamma"
  op: "Const"
  attr {
    key: "dtype"
    value {
      type: DT_FLOAT
    }
  }
  attr {
    key: "value"
    value {
      tensor {
        dtype: DT_FLOAT
        tensor_shape {
          dim {
            size: 256
          }
        }
      }
    }
  }
}
node {
  name: "WeightSharedConvolutionalBoxPredictor/BoxPredictionTower/conv2d_2/BatchNorm/feature_4/gamma/read"
  op: "Identity"
  input: "WeightSharedConvolutionalBoxPredictor/BoxPredictionTower/conv2d_2/BatchNorm/feature_4/gamma"
  attr {
    key: "T"
    value {
      type: DT_FLOAT
    }
  }
  attr {
    key: "_class"
    value {
      list {
        s: "loc:@WeightSharedConvolutionalBoxPredictor/BoxPredictionTower/conv2d_2/BatchNorm/feature_4/gamma"
      }
    }
  }
}
node {
  name: "WeightSharedConvolutionalBoxPredictor/BoxPredictionTower/conv2d_2/BatchNorm/feature_4/beta"
  op: "Const"
  attr {
    key: "dtype"
    value {
      type: DT_FLOAT
    }
  }
  attr {
    key: "value"
    value {
      tensor {
        dtype: DT_FLOAT
        tensor_shape {
          dim {
            size: 256
          }
        }
      }
    }
  }
}
node {
  name: "WeightSharedConvolutionalBoxPredictor/BoxPredictionTower/conv2d_2/BatchNorm/feature_4/beta/read"
  op: "Identity"
  input: "WeightSharedConvolutionalBoxPredictor/BoxPredictionTower/conv2d_2/BatchNorm/feature_4/beta"
  attr {
    key: "T"
    value {
      type: DT_FLOAT
    }
  }
  attr {
    key: "_class"
    value {
      list {
        s: "loc:@WeightSharedConvolutionalBoxPredictor/BoxPredictionTower/conv2d_2/BatchNorm/feature_4/beta"
      }
    }
  }
}
node {
  name: "WeightSharedConvolutionalBoxPredictor/BoxPredictionTower/conv2d_1/BatchNorm/feature_4/moving_variance"
  op: "Const"
  attr {
    key: "dtype"
    value {
      type: DT_FLOAT
    }
  }
  attr {
    key: "value"
    value {
      tensor {
        dtype: DT_FLOAT
        tensor_shape {
          dim {
            size: 256
          }
        }
      }
    }
  }
}
node {
  name: "WeightSharedConvolutionalBoxPredictor/BoxPredictionTower/conv2d_1/BatchNorm/feature_4/moving_variance/read"
  op: "Identity"
  input: "WeightSharedConvolutionalBoxPredictor/BoxPredictionTower/conv2d_1/BatchNorm/feature_4/moving_variance"
  attr {
    key: "T"
    value {
      type: DT_FLOAT
    }
  }
  attr {
    key: "_class"
    value {
      list {
        s: "loc:@WeightSharedConvolutionalBoxPredictor/BoxPredictionTower/conv2d_1/BatchNorm/feature_4/moving_variance"
      }
    }
  }
}
node {
  name: "WeightSharedConvolutionalBoxPredictor/BoxPredictionTower/conv2d_1/BatchNorm/feature_4/moving_mean"
  op: "Const"
  attr {
    key: "dtype"
    value {
      type: DT_FLOAT
    }
  }
  attr {
    key: "value"
    value {
      tensor {
        dtype: DT_FLOAT
        tensor_shape {
          dim {
            size: 256
          }
        }
      }
    }
  }
}
node {
  name: "WeightSharedConvolutionalBoxPredictor/BoxPredictionTower/conv2d_1/BatchNorm/feature_4/moving_mean/read"
  op: "Identity"
  input: "WeightSharedConvolutionalBoxPredictor/BoxPredictionTower/conv2d_1/BatchNorm/feature_4/moving_mean"
  attr {
    key: "T"
    value {
      type: DT_FLOAT
    }
  }
  attr {
    key: "_class"
    value {
      list {
        s: "loc:@WeightSharedConvolutionalBoxPredictor/BoxPredictionTower/conv2d_1/BatchNorm/feature_4/moving_mean"
      }
    }
  }
}
node {
  name: "WeightSharedConvolutionalBoxPredictor/BoxPredictionTower/conv2d_1/BatchNorm/feature_4/gamma"
  op: "Const"
  attr {
    key: "dtype"
    value {
      type: DT_FLOAT
    }
  }
  attr {
    key: "value"
    value {
      tensor {
        dtype: DT_FLOAT
        tensor_shape {
          dim {
            size: 256
          }
        }
      }
    }
  }
}
node {
  name: "WeightSharedConvolutionalBoxPredictor/BoxPredictionTower/conv2d_1/BatchNorm/feature_4/gamma/read"
  op: "Identity"
  input: "WeightSharedConvolutionalBoxPredictor/BoxPredictionTower/conv2d_1/BatchNorm/feature_4/gamma"
  attr {
    key: "T"
    value {
      type: DT_FLOAT
    }
  }
  attr {
    key: "_class"
    value {
      list {
        s: "loc:@WeightSharedConvolutionalBoxPredictor/BoxPredictionTower/conv2d_1/BatchNorm/feature_4/gamma"
      }
    }
  }
}
node {
  name: "WeightSharedConvolutionalBoxPredictor/BoxPredictionTower/conv2d_1/BatchNorm/feature_4/beta"
  op: "Const"
  attr {
    key: "dtype"
    value {
      type: DT_FLOAT
    }
  }
  attr {
    key: "value"
    value {
      tensor {
        dtype: DT_FLOAT
        tensor_shape {
          dim {
            size: 256
          }
        }
      }
    }
  }
}
node {
  name: "WeightSharedConvolutionalBoxPredictor/BoxPredictionTower/conv2d_1/BatchNorm/feature_4/beta/read"
  op: "Identity"
  input: "WeightSharedConvolutionalBoxPredictor/BoxPredictionTower/conv2d_1/BatchNorm/feature_4/beta"
  attr {
    key: "T"
    value {
      type: DT_FLOAT
    }
  }
  attr {
    key: "_class"
    value {
      list {
        s: "loc:@WeightSharedConvolutionalBoxPredictor/BoxPredictionTower/conv2d_1/BatchNorm/feature_4/beta"
      }
    }
  }
}
node {
  name: "WeightSharedConvolutionalBoxPredictor/BoxPredictionTower/conv2d_0/BatchNorm/feature_4/moving_variance"
  op: "Const"
  attr {
    key: "dtype"
    value {
      type: DT_FLOAT
    }
  }
  attr {
    key: "value"
    value {
      tensor {
        dtype: DT_FLOAT
        tensor_shape {
          dim {
            size: 256
          }
        }
      }
    }
  }
}
node {
  name: "WeightSharedConvolutionalBoxPredictor/BoxPredictionTower/conv2d_0/BatchNorm/feature_4/moving_variance/read"
  op: "Identity"
  input: "WeightSharedConvolutionalBoxPredictor/BoxPredictionTower/conv2d_0/BatchNorm/feature_4/moving_variance"
  attr {
    key: "T"
    value {
      type: DT_FLOAT
    }
  }
  attr {
    key: "_class"
    value {
      list {
        s: "loc:@WeightSharedConvolutionalBoxPredictor/BoxPredictionTower/conv2d_0/BatchNorm/feature_4/moving_variance"
      }
    }
  }
}
node {
  name: "WeightSharedConvolutionalBoxPredictor/BoxPredictionTower/conv2d_0/BatchNorm/feature_4/moving_mean"
  op: "Const"
  attr {
    key: "dtype"
    value {
      type: DT_FLOAT
    }
  }
  attr {
    key: "value"
    value {
      tensor {
        dtype: DT_FLOAT
        tensor_shape {
          dim {
            size: 256
          }
        }
      }
    }
  }
}
node {
  name: "WeightSharedConvolutionalBoxPredictor/BoxPredictionTower/conv2d_0/BatchNorm/feature_4/moving_mean/read"
  op: "Identity"
  input: "WeightSharedConvolutionalBoxPredictor/BoxPredictionTower/conv2d_0/BatchNorm/feature_4/moving_mean"
  attr {
    key: "T"
    value {
      type: DT_FLOAT
    }
  }
  attr {
    key: "_class"
    value {
      list {
        s: "loc:@WeightSharedConvolutionalBoxPredictor/BoxPredictionTower/conv2d_0/BatchNorm/feature_4/moving_mean"
      }
    }
  }
}
node {
  name: "WeightSharedConvolutionalBoxPredictor/BoxPredictionTower/conv2d_0/BatchNorm/feature_4/gamma"
  op: "Const"
  attr {
    key: "dtype"
    value {
      type: DT_FLOAT
    }
  }
  attr {
    key: "value"
    value {
      tensor {
        dtype: DT_FLOAT
        tensor_shape {
          dim {
            size: 256
          }
        }
      }
    }
  }
}
node {
  name: "WeightSharedConvolutionalBoxPredictor/BoxPredictionTower/conv2d_0/BatchNorm/feature_4/gamma/read"
  op: "Identity"
  input: "WeightSharedConvolutionalBoxPredictor/BoxPredictionTower/conv2d_0/BatchNorm/feature_4/gamma"
  attr {
    key: "T"
    value {
      type: DT_FLOAT
    }
  }
  attr {
    key: "_class"
    value {
      list {
        s: "loc:@WeightSharedConvolutionalBoxPredictor/BoxPredictionTower/conv2d_0/BatchNorm/feature_4/gamma"
      }
    }
  }
}
node {
  name: "WeightSharedConvolutionalBoxPredictor/BoxPredictionTower/conv2d_0/BatchNorm/feature_4/beta"
  op: "Const"
  attr {
    key: "dtype"
    value {
      type: DT_FLOAT
    }
  }
  attr {
    key: "value"
    value {
      tensor {
        dtype: DT_FLOAT
        tensor_shape {
          dim {
            size: 256
          }
        }
      }
    }
  }
}
node {
  name: "WeightSharedConvolutionalBoxPredictor/BoxPredictionTower/conv2d_0/BatchNorm/feature_4/beta/read"
  op: "Identity"
  input: "WeightSharedConvolutionalBoxPredictor/BoxPredictionTower/conv2d_0/BatchNorm/feature_4/beta"
  attr {
    key: "T"
    value {
      type: DT_FLOAT
    }
  }
  attr {
    key: "_class"
    value {
      list {
        s: "loc:@WeightSharedConvolutionalBoxPredictor/BoxPredictionTower/conv2d_0/BatchNorm/feature_4/beta"
      }
    }
  }
}
node {
  name: "WeightSharedConvolutionalBoxPredictor_3/Reshape_1/shape/2"
  op: "Const"
  attr {
    key: "dtype"
    value {
      type: DT_INT32
    }
  }
  attr {
    key: "value"
    value {
      tensor {
        dtype: DT_INT32
        tensor_shape {
        }
        int_val: 2
      }
    }
  }
}
node {
  name: "WeightSharedConvolutionalBoxPredictor_3/Reshape_1/shape/1"
  op: "Const"
  attr {
    key: "dtype"
    value {
      type: DT_INT32
    }
  }
  attr {
    key: "value"
    value {
      tensor {
        dtype: DT_INT32
        tensor_shape {
        }
        int_val: -1
      }
    }
  }
}
node {
  name: "WeightSharedConvolutionalBoxPredictor_3/strided_slice_1/stack_2"
  op: "Const"
  attr {
    key: "dtype"
    value {
      type: DT_INT32
    }
  }
  attr {
    key: "value"
    value {
      tensor {
        dtype: DT_INT32
        tensor_shape {
          dim {
            size: 1
          }
        }
        int_val: 1
      }
    }
  }
}
node {
  name: "WeightSharedConvolutionalBoxPredictor_3/strided_slice_1/stack_1"
  op: "Const"
  attr {
    key: "dtype"
    value {
      type: DT_INT32
    }
  }
  attr {
    key: "value"
    value {
      tensor {
        dtype: DT_INT32
        tensor_shape {
          dim {
            size: 1
          }
        }
        int_val: 1
      }
    }
  }
}
node {
  name: "WeightSharedConvolutionalBoxPredictor_3/strided_slice_1/stack"
  op: "Const"
  attr {
    key: "dtype"
    value {
      type: DT_INT32
    }
  }
  attr {
    key: "value"
    value {
      tensor {
        dtype: DT_INT32
        tensor_shape {
          dim {
            size: 1
          }
        }
        int_val: 0
      }
    }
  }
}
node {
  name: "WeightSharedConvolutionalBoxPredictor/ClassPredictionTower/conv2d_3/BatchNorm/feature_3/moving_variance"
  op: "Const"
  attr {
    key: "dtype"
    value {
      type: DT_FLOAT
    }
  }
  attr {
    key: "value"
    value {
      tensor {
        dtype: DT_FLOAT
        tensor_shape {
          dim {
            size: 256
          }
        }
      }
    }
  }
}
node {
  name: "WeightSharedConvolutionalBoxPredictor/ClassPredictionTower/conv2d_3/BatchNorm/feature_3/moving_variance/read"
  op: "Identity"
  input: "WeightSharedConvolutionalBoxPredictor/ClassPredictionTower/conv2d_3/BatchNorm/feature_3/moving_variance"
  attr {
    key: "T"
    value {
      type: DT_FLOAT
    }
  }
  attr {
    key: "_class"
    value {
      list {
        s: "loc:@WeightSharedConvolutionalBoxPredictor/ClassPredictionTower/conv2d_3/BatchNorm/feature_3/moving_variance"
      }
    }
  }
}
node {
  name: "WeightSharedConvolutionalBoxPredictor/ClassPredictionTower/conv2d_3/BatchNorm/feature_3/moving_mean"
  op: "Const"
  attr {
    key: "dtype"
    value {
      type: DT_FLOAT
    }
  }
  attr {
    key: "value"
    value {
      tensor {
        dtype: DT_FLOAT
        tensor_shape {
          dim {
            size: 256
          }
        }
      }
    }
  }
}
node {
  name: "WeightSharedConvolutionalBoxPredictor/ClassPredictionTower/conv2d_3/BatchNorm/feature_3/moving_mean/read"
  op: "Identity"
  input: "WeightSharedConvolutionalBoxPredictor/ClassPredictionTower/conv2d_3/BatchNorm/feature_3/moving_mean"
  attr {
    key: "T"
    value {
      type: DT_FLOAT
    }
  }
  attr {
    key: "_class"
    value {
      list {
        s: "loc:@WeightSharedConvolutionalBoxPredictor/ClassPredictionTower/conv2d_3/BatchNorm/feature_3/moving_mean"
      }
    }
  }
}
node {
  name: "WeightSharedConvolutionalBoxPredictor/ClassPredictionTower/conv2d_3/BatchNorm/feature_3/gamma"
  op: "Const"
  attr {
    key: "dtype"
    value {
      type: DT_FLOAT
    }
  }
  attr {
    key: "value"
    value {
      tensor {
        dtype: DT_FLOAT
        tensor_shape {
          dim {
            size: 256
          }
        }
      }
    }
  }
}
node {
  name: "WeightSharedConvolutionalBoxPredictor/ClassPredictionTower/conv2d_3/BatchNorm/feature_3/gamma/read"
  op: "Identity"
  input: "WeightSharedConvolutionalBoxPredictor/ClassPredictionTower/conv2d_3/BatchNorm/feature_3/gamma"
  attr {
    key: "T"
    value {
      type: DT_FLOAT
    }
  }
  attr {
    key: "_class"
    value {
      list {
        s: "loc:@WeightSharedConvolutionalBoxPredictor/ClassPredictionTower/conv2d_3/BatchNorm/feature_3/gamma"
      }
    }
  }
}
node {
  name: "WeightSharedConvolutionalBoxPredictor/ClassPredictionTower/conv2d_3/BatchNorm/feature_3/beta"
  op: "Const"
  attr {
    key: "dtype"
    value {
      type: DT_FLOAT
    }
  }
  attr {
    key: "value"
    value {
      tensor {
        dtype: DT_FLOAT
        tensor_shape {
          dim {
            size: 256
          }
        }
      }
    }
  }
}
node {
  name: "WeightSharedConvolutionalBoxPredictor/ClassPredictionTower/conv2d_3/BatchNorm/feature_3/beta/read"
  op: "Identity"
  input: "WeightSharedConvolutionalBoxPredictor/ClassPredictionTower/conv2d_3/BatchNorm/feature_3/beta"
  attr {
    key: "T"
    value {
      type: DT_FLOAT
    }
  }
  attr {
    key: "_class"
    value {
      list {
        s: "loc:@WeightSharedConvolutionalBoxPredictor/ClassPredictionTower/conv2d_3/BatchNorm/feature_3/beta"
      }
    }
  }
}
node {
  name: "WeightSharedConvolutionalBoxPredictor/ClassPredictionTower/conv2d_2/BatchNorm/feature_3/moving_variance"
  op: "Const"
  attr {
    key: "dtype"
    value {
      type: DT_FLOAT
    }
  }
  attr {
    key: "value"
    value {
      tensor {
        dtype: DT_FLOAT
        tensor_shape {
          dim {
            size: 256
          }
        }
      }
    }
  }
}
node {
  name: "WeightSharedConvolutionalBoxPredictor/ClassPredictionTower/conv2d_2/BatchNorm/feature_3/moving_variance/read"
  op: "Identity"
  input: "WeightSharedConvolutionalBoxPredictor/ClassPredictionTower/conv2d_2/BatchNorm/feature_3/moving_variance"
  attr {
    key: "T"
    value {
      type: DT_FLOAT
    }
  }
  attr {
    key: "_class"
    value {
      list {
        s: "loc:@WeightSharedConvolutionalBoxPredictor/ClassPredictionTower/conv2d_2/BatchNorm/feature_3/moving_variance"
      }
    }
  }
}
node {
  name: "WeightSharedConvolutionalBoxPredictor/ClassPredictionTower/conv2d_2/BatchNorm/feature_3/moving_mean"
  op: "Const"
  attr {
    key: "dtype"
    value {
      type: DT_FLOAT
    }
  }
  attr {
    key: "value"
    value {
      tensor {
        dtype: DT_FLOAT
        tensor_shape {
          dim {
            size: 256
          }
        }
      }
    }
  }
}
node {
  name: "WeightSharedConvolutionalBoxPredictor/ClassPredictionTower/conv2d_2/BatchNorm/feature_3/moving_mean/read"
  op: "Identity"
  input: "WeightSharedConvolutionalBoxPredictor/ClassPredictionTower/conv2d_2/BatchNorm/feature_3/moving_mean"
  attr {
    key: "T"
    value {
      type: DT_FLOAT
    }
  }
  attr {
    key: "_class"
    value {
      list {
        s: "loc:@WeightSharedConvolutionalBoxPredictor/ClassPredictionTower/conv2d_2/BatchNorm/feature_3/moving_mean"
      }
    }
  }
}
node {
  name: "WeightSharedConvolutionalBoxPredictor/ClassPredictionTower/conv2d_2/BatchNorm/feature_3/gamma"
  op: "Const"
  attr {
    key: "dtype"
    value {
      type: DT_FLOAT
    }
  }
  attr {
    key: "value"
    value {
      tensor {
        dtype: DT_FLOAT
        tensor_shape {
          dim {
            size: 256
          }
        }
      }
    }
  }
}
node {
  name: "WeightSharedConvolutionalBoxPredictor/ClassPredictionTower/conv2d_2/BatchNorm/feature_3/gamma/read"
  op: "Identity"
  input: "WeightSharedConvolutionalBoxPredictor/ClassPredictionTower/conv2d_2/BatchNorm/feature_3/gamma"
  attr {
    key: "T"
    value {
      type: DT_FLOAT
    }
  }
  attr {
    key: "_class"
    value {
      list {
        s: "loc:@WeightSharedConvolutionalBoxPredictor/ClassPredictionTower/conv2d_2/BatchNorm/feature_3/gamma"
      }
    }
  }
}
node {
  name: "WeightSharedConvolutionalBoxPredictor/ClassPredictionTower/conv2d_2/BatchNorm/feature_3/beta"
  op: "Const"
  attr {
    key: "dtype"
    value {
      type: DT_FLOAT
    }
  }
  attr {
    key: "value"
    value {
      tensor {
        dtype: DT_FLOAT
        tensor_shape {
          dim {
            size: 256
          }
        }
      }
    }
  }
}
node {
  name: "WeightSharedConvolutionalBoxPredictor/ClassPredictionTower/conv2d_2/BatchNorm/feature_3/beta/read"
  op: "Identity"
  input: "WeightSharedConvolutionalBoxPredictor/ClassPredictionTower/conv2d_2/BatchNorm/feature_3/beta"
  attr {
    key: "T"
    value {
      type: DT_FLOAT
    }
  }
  attr {
    key: "_class"
    value {
      list {
        s: "loc:@WeightSharedConvolutionalBoxPredictor/ClassPredictionTower/conv2d_2/BatchNorm/feature_3/beta"
      }
    }
  }
}
node {
  name: "WeightSharedConvolutionalBoxPredictor/ClassPredictionTower/conv2d_1/BatchNorm/feature_3/moving_variance"
  op: "Const"
  attr {
    key: "dtype"
    value {
      type: DT_FLOAT
    }
  }
  attr {
    key: "value"
    value {
      tensor {
        dtype: DT_FLOAT
        tensor_shape {
          dim {
            size: 256
          }
        }
      }
    }
  }
}
node {
  name: "WeightSharedConvolutionalBoxPredictor/ClassPredictionTower/conv2d_1/BatchNorm/feature_3/moving_variance/read"
  op: "Identity"
  input: "WeightSharedConvolutionalBoxPredictor/ClassPredictionTower/conv2d_1/BatchNorm/feature_3/moving_variance"
  attr {
    key: "T"
    value {
      type: DT_FLOAT
    }
  }
  attr {
    key: "_class"
    value {
      list {
        s: "loc:@WeightSharedConvolutionalBoxPredictor/ClassPredictionTower/conv2d_1/BatchNorm/feature_3/moving_variance"
      }
    }
  }
}
node {
  name: "WeightSharedConvolutionalBoxPredictor/ClassPredictionTower/conv2d_1/BatchNorm/feature_3/moving_mean"
  op: "Const"
  attr {
    key: "dtype"
    value {
      type: DT_FLOAT
    }
  }
  attr {
    key: "value"
    value {
      tensor {
        dtype: DT_FLOAT
        tensor_shape {
          dim {
            size: 256
          }
        }
      }
    }
  }
}
node {
  name: "WeightSharedConvolutionalBoxPredictor/ClassPredictionTower/conv2d_1/BatchNorm/feature_3/moving_mean/read"
  op: "Identity"
  input: "WeightSharedConvolutionalBoxPredictor/ClassPredictionTower/conv2d_1/BatchNorm/feature_3/moving_mean"
  attr {
    key: "T"
    value {
      type: DT_FLOAT
    }
  }
  attr {
    key: "_class"
    value {
      list {
        s: "loc:@WeightSharedConvolutionalBoxPredictor/ClassPredictionTower/conv2d_1/BatchNorm/feature_3/moving_mean"
      }
    }
  }
}
node {
  name: "WeightSharedConvolutionalBoxPredictor/ClassPredictionTower/conv2d_1/BatchNorm/feature_3/gamma"
  op: "Const"
  attr {
    key: "dtype"
    value {
      type: DT_FLOAT
    }
  }
  attr {
    key: "value"
    value {
      tensor {
        dtype: DT_FLOAT
        tensor_shape {
          dim {
            size: 256
          }
        }
      }
    }
  }
}
node {
  name: "WeightSharedConvolutionalBoxPredictor/ClassPredictionTower/conv2d_1/BatchNorm/feature_3/gamma/read"
  op: "Identity"
  input: "WeightSharedConvolutionalBoxPredictor/ClassPredictionTower/conv2d_1/BatchNorm/feature_3/gamma"
  attr {
    key: "T"
    value {
      type: DT_FLOAT
    }
  }
  attr {
    key: "_class"
    value {
      list {
        s: "loc:@WeightSharedConvolutionalBoxPredictor/ClassPredictionTower/conv2d_1/BatchNorm/feature_3/gamma"
      }
    }
  }
}
node {
  name: "WeightSharedConvolutionalBoxPredictor/ClassPredictionTower/conv2d_1/BatchNorm/feature_3/beta"
  op: "Const"
  attr {
    key: "dtype"
    value {
      type: DT_FLOAT
    }
  }
  attr {
    key: "value"
    value {
      tensor {
        dtype: DT_FLOAT
        tensor_shape {
          dim {
            size: 256
          }
        }
      }
    }
  }
}
node {
  name: "WeightSharedConvolutionalBoxPredictor/ClassPredictionTower/conv2d_1/BatchNorm/feature_3/beta/read"
  op: "Identity"
  input: "WeightSharedConvolutionalBoxPredictor/ClassPredictionTower/conv2d_1/BatchNorm/feature_3/beta"
  attr {
    key: "T"
    value {
      type: DT_FLOAT
    }
  }
  attr {
    key: "_class"
    value {
      list {
        s: "loc:@WeightSharedConvolutionalBoxPredictor/ClassPredictionTower/conv2d_1/BatchNorm/feature_3/beta"
      }
    }
  }
}
node {
  name: "WeightSharedConvolutionalBoxPredictor/ClassPredictionTower/conv2d_0/BatchNorm/feature_3/moving_variance"
  op: "Const"
  attr {
    key: "dtype"
    value {
      type: DT_FLOAT
    }
  }
  attr {
    key: "value"
    value {
      tensor {
        dtype: DT_FLOAT
        tensor_shape {
          dim {
            size: 256
          }
        }
      }
    }
  }
}
node {
  name: "WeightSharedConvolutionalBoxPredictor/ClassPredictionTower/conv2d_0/BatchNorm/feature_3/moving_variance/read"
  op: "Identity"
  input: "WeightSharedConvolutionalBoxPredictor/ClassPredictionTower/conv2d_0/BatchNorm/feature_3/moving_variance"
  attr {
    key: "T"
    value {
      type: DT_FLOAT
    }
  }
  attr {
    key: "_class"
    value {
      list {
        s: "loc:@WeightSharedConvolutionalBoxPredictor/ClassPredictionTower/conv2d_0/BatchNorm/feature_3/moving_variance"
      }
    }
  }
}
node {
  name: "WeightSharedConvolutionalBoxPredictor/ClassPredictionTower/conv2d_0/BatchNorm/feature_3/moving_mean"
  op: "Const"
  attr {
    key: "dtype"
    value {
      type: DT_FLOAT
    }
  }
  attr {
    key: "value"
    value {
      tensor {
        dtype: DT_FLOAT
        tensor_shape {
          dim {
            size: 256
          }
        }
      }
    }
  }
}
node {
  name: "WeightSharedConvolutionalBoxPredictor/ClassPredictionTower/conv2d_0/BatchNorm/feature_3/moving_mean/read"
  op: "Identity"
  input: "WeightSharedConvolutionalBoxPredictor/ClassPredictionTower/conv2d_0/BatchNorm/feature_3/moving_mean"
  attr {
    key: "T"
    value {
      type: DT_FLOAT
    }
  }
  attr {
    key: "_class"
    value {
      list {
        s: "loc:@WeightSharedConvolutionalBoxPredictor/ClassPredictionTower/conv2d_0/BatchNorm/feature_3/moving_mean"
      }
    }
  }
}
node {
  name: "WeightSharedConvolutionalBoxPredictor/ClassPredictionTower/conv2d_0/BatchNorm/feature_3/gamma"
  op: "Const"
  attr {
    key: "dtype"
    value {
      type: DT_FLOAT
    }
  }
  attr {
    key: "value"
    value {
      tensor {
        dtype: DT_FLOAT
        tensor_shape {
          dim {
            size: 256
          }
        }
      }
    }
  }
}
node {
  name: "WeightSharedConvolutionalBoxPredictor/ClassPredictionTower/conv2d_0/BatchNorm/feature_3/gamma/read"
  op: "Identity"
  input: "WeightSharedConvolutionalBoxPredictor/ClassPredictionTower/conv2d_0/BatchNorm/feature_3/gamma"
  attr {
    key: "T"
    value {
      type: DT_FLOAT
    }
  }
  attr {
    key: "_class"
    value {
      list {
        s: "loc:@WeightSharedConvolutionalBoxPredictor/ClassPredictionTower/conv2d_0/BatchNorm/feature_3/gamma"
      }
    }
  }
}
node {
  name: "WeightSharedConvolutionalBoxPredictor/ClassPredictionTower/conv2d_0/BatchNorm/feature_3/beta"
  op: "Const"
  attr {
    key: "dtype"
    value {
      type: DT_FLOAT
    }
  }
  attr {
    key: "value"
    value {
      tensor {
        dtype: DT_FLOAT
        tensor_shape {
          dim {
            size: 256
          }
        }
      }
    }
  }
}
node {
  name: "WeightSharedConvolutionalBoxPredictor/ClassPredictionTower/conv2d_0/BatchNorm/feature_3/beta/read"
  op: "Identity"
  input: "WeightSharedConvolutionalBoxPredictor/ClassPredictionTower/conv2d_0/BatchNorm/feature_3/beta"
  attr {
    key: "T"
    value {
      type: DT_FLOAT
    }
  }
  attr {
    key: "_class"
    value {
      list {
        s: "loc:@WeightSharedConvolutionalBoxPredictor/ClassPredictionTower/conv2d_0/BatchNorm/feature_3/beta"
      }
    }
  }
}
node {
  name: "WeightSharedConvolutionalBoxPredictor_3/Reshape/shape/2"
  op: "Const"
  attr {
    key: "dtype"
    value {
      type: DT_INT32
    }
  }
  attr {
    key: "value"
    value {
      tensor {
        dtype: DT_INT32
        tensor_shape {
        }
        int_val: 4
      }
    }
  }
}
node {
  name: "WeightSharedConvolutionalBoxPredictor_3/Reshape/shape/1"
  op: "Const"
  attr {
    key: "dtype"
    value {
      type: DT_INT32
    }
  }
  attr {
    key: "value"
    value {
      tensor {
        dtype: DT_INT32
        tensor_shape {
        }
        int_val: -1
      }
    }
  }
}
node {
  name: "WeightSharedConvolutionalBoxPredictor_3/strided_slice/stack_2"
  op: "Const"
  attr {
    key: "dtype"
    value {
      type: DT_INT32
    }
  }
  attr {
    key: "value"
    value {
      tensor {
        dtype: DT_INT32
        tensor_shape {
          dim {
            size: 1
          }
        }
        int_val: 1
      }
    }
  }
}
node {
  name: "WeightSharedConvolutionalBoxPredictor_3/strided_slice/stack_1"
  op: "Const"
  attr {
    key: "dtype"
    value {
      type: DT_INT32
    }
  }
  attr {
    key: "value"
    value {
      tensor {
        dtype: DT_INT32
        tensor_shape {
          dim {
            size: 1
          }
        }
        int_val: 1
      }
    }
  }
}
node {
  name: "WeightSharedConvolutionalBoxPredictor_3/strided_slice/stack"
  op: "Const"
  attr {
    key: "dtype"
    value {
      type: DT_INT32
    }
  }
  attr {
    key: "value"
    value {
      tensor {
        dtype: DT_INT32
        tensor_shape {
          dim {
            size: 1
          }
        }
        int_val: 0
      }
    }
  }
}
node {
  name: "WeightSharedConvolutionalBoxPredictor/BoxPredictionTower/conv2d_3/BatchNorm/feature_3/moving_variance"
  op: "Const"
  attr {
    key: "dtype"
    value {
      type: DT_FLOAT
    }
  }
  attr {
    key: "value"
    value {
      tensor {
        dtype: DT_FLOAT
        tensor_shape {
          dim {
            size: 256
          }
        }
      }
    }
  }
}
node {
  name: "WeightSharedConvolutionalBoxPredictor/BoxPredictionTower/conv2d_3/BatchNorm/feature_3/moving_variance/read"
  op: "Identity"
  input: "WeightSharedConvolutionalBoxPredictor/BoxPredictionTower/conv2d_3/BatchNorm/feature_3/moving_variance"
  attr {
    key: "T"
    value {
      type: DT_FLOAT
    }
  }
  attr {
    key: "_class"
    value {
      list {
        s: "loc:@WeightSharedConvolutionalBoxPredictor/BoxPredictionTower/conv2d_3/BatchNorm/feature_3/moving_variance"
      }
    }
  }
}
node {
  name: "WeightSharedConvolutionalBoxPredictor/BoxPredictionTower/conv2d_3/BatchNorm/feature_3/moving_mean"
  op: "Const"
  attr {
    key: "dtype"
    value {
      type: DT_FLOAT
    }
  }
  attr {
    key: "value"
    value {
      tensor {
        dtype: DT_FLOAT
        tensor_shape {
          dim {
            size: 256
          }
        }
      }
    }
  }
}
node {
  name: "WeightSharedConvolutionalBoxPredictor/BoxPredictionTower/conv2d_3/BatchNorm/feature_3/moving_mean/read"
  op: "Identity"
  input: "WeightSharedConvolutionalBoxPredictor/BoxPredictionTower/conv2d_3/BatchNorm/feature_3/moving_mean"
  attr {
    key: "T"
    value {
      type: DT_FLOAT
    }
  }
  attr {
    key: "_class"
    value {
      list {
        s: "loc:@WeightSharedConvolutionalBoxPredictor/BoxPredictionTower/conv2d_3/BatchNorm/feature_3/moving_mean"
      }
    }
  }
}
node {
  name: "WeightSharedConvolutionalBoxPredictor/BoxPredictionTower/conv2d_3/BatchNorm/feature_3/gamma"
  op: "Const"
  attr {
    key: "dtype"
    value {
      type: DT_FLOAT
    }
  }
  attr {
    key: "value"
    value {
      tensor {
        dtype: DT_FLOAT
        tensor_shape {
          dim {
            size: 256
          }
        }
      }
    }
  }
}
node {
  name: "WeightSharedConvolutionalBoxPredictor/BoxPredictionTower/conv2d_3/BatchNorm/feature_3/gamma/read"
  op: "Identity"
  input: "WeightSharedConvolutionalBoxPredictor/BoxPredictionTower/conv2d_3/BatchNorm/feature_3/gamma"
  attr {
    key: "T"
    value {
      type: DT_FLOAT
    }
  }
  attr {
    key: "_class"
    value {
      list {
        s: "loc:@WeightSharedConvolutionalBoxPredictor/BoxPredictionTower/conv2d_3/BatchNorm/feature_3/gamma"
      }
    }
  }
}
node {
  name: "WeightSharedConvolutionalBoxPredictor/BoxPredictionTower/conv2d_3/BatchNorm/feature_3/beta"
  op: "Const"
  attr {
    key: "dtype"
    value {
      type: DT_FLOAT
    }
  }
  attr {
    key: "value"
    value {
      tensor {
        dtype: DT_FLOAT
        tensor_shape {
          dim {
            size: 256
          }
        }
      }
    }
  }
}
node {
  name: "WeightSharedConvolutionalBoxPredictor/BoxPredictionTower/conv2d_3/BatchNorm/feature_3/beta/read"
  op: "Identity"
  input: "WeightSharedConvolutionalBoxPredictor/BoxPredictionTower/conv2d_3/BatchNorm/feature_3/beta"
  attr {
    key: "T"
    value {
      type: DT_FLOAT
    }
  }
  attr {
    key: "_class"
    value {
      list {
        s: "loc:@WeightSharedConvolutionalBoxPredictor/BoxPredictionTower/conv2d_3/BatchNorm/feature_3/beta"
      }
    }
  }
}
node {
  name: "WeightSharedConvolutionalBoxPredictor/BoxPredictionTower/conv2d_2/BatchNorm/feature_3/moving_variance"
  op: "Const"
  attr {
    key: "dtype"
    value {
      type: DT_FLOAT
    }
  }
  attr {
    key: "value"
    value {
      tensor {
        dtype: DT_FLOAT
        tensor_shape {
          dim {
            size: 256
          }
        }
      }
    }
  }
}
node {
  name: "WeightSharedConvolutionalBoxPredictor/BoxPredictionTower/conv2d_2/BatchNorm/feature_3/moving_variance/read"
  op: "Identity"
  input: "WeightSharedConvolutionalBoxPredictor/BoxPredictionTower/conv2d_2/BatchNorm/feature_3/moving_variance"
  attr {
    key: "T"
    value {
      type: DT_FLOAT
    }
  }
  attr {
    key: "_class"
    value {
      list {
        s: "loc:@WeightSharedConvolutionalBoxPredictor/BoxPredictionTower/conv2d_2/BatchNorm/feature_3/moving_variance"
      }
    }
  }
}
node {
  name: "WeightSharedConvolutionalBoxPredictor/BoxPredictionTower/conv2d_2/BatchNorm/feature_3/moving_mean"
  op: "Const"
  attr {
    key: "dtype"
    value {
      type: DT_FLOAT
    }
  }
  attr {
    key: "value"
    value {
      tensor {
        dtype: DT_FLOAT
        tensor_shape {
          dim {
            size: 256
          }
        }
      }
    }
  }
}
node {
  name: "WeightSharedConvolutionalBoxPredictor/BoxPredictionTower/conv2d_2/BatchNorm/feature_3/moving_mean/read"
  op: "Identity"
  input: "WeightSharedConvolutionalBoxPredictor/BoxPredictionTower/conv2d_2/BatchNorm/feature_3/moving_mean"
  attr {
    key: "T"
    value {
      type: DT_FLOAT
    }
  }
  attr {
    key: "_class"
    value {
      list {
        s: "loc:@WeightSharedConvolutionalBoxPredictor/BoxPredictionTower/conv2d_2/BatchNorm/feature_3/moving_mean"
      }
    }
  }
}
node {
  name: "WeightSharedConvolutionalBoxPredictor/BoxPredictionTower/conv2d_2/BatchNorm/feature_3/gamma"
  op: "Const"
  attr {
    key: "dtype"
    value {
      type: DT_FLOAT
    }
  }
  attr {
    key: "value"
    value {
      tensor {
        dtype: DT_FLOAT
        tensor_shape {
          dim {
            size: 256
          }
        }
      }
    }
  }
}
node {
  name: "WeightSharedConvolutionalBoxPredictor/BoxPredictionTower/conv2d_2/BatchNorm/feature_3/gamma/read"
  op: "Identity"
  input: "WeightSharedConvolutionalBoxPredictor/BoxPredictionTower/conv2d_2/BatchNorm/feature_3/gamma"
  attr {
    key: "T"
    value {
      type: DT_FLOAT
    }
  }
  attr {
    key: "_class"
    value {
      list {
        s: "loc:@WeightSharedConvolutionalBoxPredictor/BoxPredictionTower/conv2d_2/BatchNorm/feature_3/gamma"
      }
    }
  }
}
node {
  name: "WeightSharedConvolutionalBoxPredictor/BoxPredictionTower/conv2d_2/BatchNorm/feature_3/beta"
  op: "Const"
  attr {
    key: "dtype"
    value {
      type: DT_FLOAT
    }
  }
  attr {
    key: "value"
    value {
      tensor {
        dtype: DT_FLOAT
        tensor_shape {
          dim {
            size: 256
          }
        }
      }
    }
  }
}
node {
  name: "WeightSharedConvolutionalBoxPredictor/BoxPredictionTower/conv2d_2/BatchNorm/feature_3/beta/read"
  op: "Identity"
  input: "WeightSharedConvolutionalBoxPredictor/BoxPredictionTower/conv2d_2/BatchNorm/feature_3/beta"
  attr {
    key: "T"
    value {
      type: DT_FLOAT
    }
  }
  attr {
    key: "_class"
    value {
      list {
        s: "loc:@WeightSharedConvolutionalBoxPredictor/BoxPredictionTower/conv2d_2/BatchNorm/feature_3/beta"
      }
    }
  }
}
node {
  name: "WeightSharedConvolutionalBoxPredictor/BoxPredictionTower/conv2d_1/BatchNorm/feature_3/moving_variance"
  op: "Const"
  attr {
    key: "dtype"
    value {
      type: DT_FLOAT
    }
  }
  attr {
    key: "value"
    value {
      tensor {
        dtype: DT_FLOAT
        tensor_shape {
          dim {
            size: 256
          }
        }
      }
    }
  }
}
node {
  name: "WeightSharedConvolutionalBoxPredictor/BoxPredictionTower/conv2d_1/BatchNorm/feature_3/moving_variance/read"
  op: "Identity"
  input: "WeightSharedConvolutionalBoxPredictor/BoxPredictionTower/conv2d_1/BatchNorm/feature_3/moving_variance"
  attr {
    key: "T"
    value {
      type: DT_FLOAT
    }
  }
  attr {
    key: "_class"
    value {
      list {
        s: "loc:@WeightSharedConvolutionalBoxPredictor/BoxPredictionTower/conv2d_1/BatchNorm/feature_3/moving_variance"
      }
    }
  }
}
node {
  name: "WeightSharedConvolutionalBoxPredictor/BoxPredictionTower/conv2d_1/BatchNorm/feature_3/moving_mean"
  op: "Const"
  attr {
    key: "dtype"
    value {
      type: DT_FLOAT
    }
  }
  attr {
    key: "value"
    value {
      tensor {
        dtype: DT_FLOAT
        tensor_shape {
          dim {
            size: 256
          }
        }
      }
    }
  }
}
node {
  name: "WeightSharedConvolutionalBoxPredictor/BoxPredictionTower/conv2d_1/BatchNorm/feature_3/moving_mean/read"
  op: "Identity"
  input: "WeightSharedConvolutionalBoxPredictor/BoxPredictionTower/conv2d_1/BatchNorm/feature_3/moving_mean"
  attr {
    key: "T"
    value {
      type: DT_FLOAT
    }
  }
  attr {
    key: "_class"
    value {
      list {
        s: "loc:@WeightSharedConvolutionalBoxPredictor/BoxPredictionTower/conv2d_1/BatchNorm/feature_3/moving_mean"
      }
    }
  }
}
node {
  name: "WeightSharedConvolutionalBoxPredictor/BoxPredictionTower/conv2d_1/BatchNorm/feature_3/gamma"
  op: "Const"
  attr {
    key: "dtype"
    value {
      type: DT_FLOAT
    }
  }
  attr {
    key: "value"
    value {
      tensor {
        dtype: DT_FLOAT
        tensor_shape {
          dim {
            size: 256
          }
        }
      }
    }
  }
}
node {
  name: "WeightSharedConvolutionalBoxPredictor/BoxPredictionTower/conv2d_1/BatchNorm/feature_3/gamma/read"
  op: "Identity"
  input: "WeightSharedConvolutionalBoxPredictor/BoxPredictionTower/conv2d_1/BatchNorm/feature_3/gamma"
  attr {
    key: "T"
    value {
      type: DT_FLOAT
    }
  }
  attr {
    key: "_class"
    value {
      list {
        s: "loc:@WeightSharedConvolutionalBoxPredictor/BoxPredictionTower/conv2d_1/BatchNorm/feature_3/gamma"
      }
    }
  }
}
node {
  name: "WeightSharedConvolutionalBoxPredictor/BoxPredictionTower/conv2d_1/BatchNorm/feature_3/beta"
  op: "Const"
  attr {
    key: "dtype"
    value {
      type: DT_FLOAT
    }
  }
  attr {
    key: "value"
    value {
      tensor {
        dtype: DT_FLOAT
        tensor_shape {
          dim {
            size: 256
          }
        }
      }
    }
  }
}
node {
  name: "WeightSharedConvolutionalBoxPredictor/BoxPredictionTower/conv2d_1/BatchNorm/feature_3/beta/read"
  op: "Identity"
  input: "WeightSharedConvolutionalBoxPredictor/BoxPredictionTower/conv2d_1/BatchNorm/feature_3/beta"
  attr {
    key: "T"
    value {
      type: DT_FLOAT
    }
  }
  attr {
    key: "_class"
    value {
      list {
        s: "loc:@WeightSharedConvolutionalBoxPredictor/BoxPredictionTower/conv2d_1/BatchNorm/feature_3/beta"
      }
    }
  }
}
node {
  name: "WeightSharedConvolutionalBoxPredictor/BoxPredictionTower/conv2d_0/BatchNorm/feature_3/moving_variance"
  op: "Const"
  attr {
    key: "dtype"
    value {
      type: DT_FLOAT
    }
  }
  attr {
    key: "value"
    value {
      tensor {
        dtype: DT_FLOAT
        tensor_shape {
          dim {
            size: 256
          }
        }
      }
    }
  }
}
node {
  name: "WeightSharedConvolutionalBoxPredictor/BoxPredictionTower/conv2d_0/BatchNorm/feature_3/moving_variance/read"
  op: "Identity"
  input: "WeightSharedConvolutionalBoxPredictor/BoxPredictionTower/conv2d_0/BatchNorm/feature_3/moving_variance"
  attr {
    key: "T"
    value {
      type: DT_FLOAT
    }
  }
  attr {
    key: "_class"
    value {
      list {
        s: "loc:@WeightSharedConvolutionalBoxPredictor/BoxPredictionTower/conv2d_0/BatchNorm/feature_3/moving_variance"
      }
    }
  }
}
node {
  name: "WeightSharedConvolutionalBoxPredictor/BoxPredictionTower/conv2d_0/BatchNorm/feature_3/moving_mean"
  op: "Const"
  attr {
    key: "dtype"
    value {
      type: DT_FLOAT
    }
  }
  attr {
    key: "value"
    value {
      tensor {
        dtype: DT_FLOAT
        tensor_shape {
          dim {
            size: 256
          }
        }
      }
    }
  }
}
node {
  name: "WeightSharedConvolutionalBoxPredictor/BoxPredictionTower/conv2d_0/BatchNorm/feature_3/moving_mean/read"
  op: "Identity"
  input: "WeightSharedConvolutionalBoxPredictor/BoxPredictionTower/conv2d_0/BatchNorm/feature_3/moving_mean"
  attr {
    key: "T"
    value {
      type: DT_FLOAT
    }
  }
  attr {
    key: "_class"
    value {
      list {
        s: "loc:@WeightSharedConvolutionalBoxPredictor/BoxPredictionTower/conv2d_0/BatchNorm/feature_3/moving_mean"
      }
    }
  }
}
node {
  name: "WeightSharedConvolutionalBoxPredictor/BoxPredictionTower/conv2d_0/BatchNorm/feature_3/gamma"
  op: "Const"
  attr {
    key: "dtype"
    value {
      type: DT_FLOAT
    }
  }
  attr {
    key: "value"
    value {
      tensor {
        dtype: DT_FLOAT
        tensor_shape {
          dim {
            size: 256
          }
        }
      }
    }
  }
}
node {
  name: "WeightSharedConvolutionalBoxPredictor/BoxPredictionTower/conv2d_0/BatchNorm/feature_3/gamma/read"
  op: "Identity"
  input: "WeightSharedConvolutionalBoxPredictor/BoxPredictionTower/conv2d_0/BatchNorm/feature_3/gamma"
  attr {
    key: "T"
    value {
      type: DT_FLOAT
    }
  }
  attr {
    key: "_class"
    value {
      list {
        s: "loc:@WeightSharedConvolutionalBoxPredictor/BoxPredictionTower/conv2d_0/BatchNorm/feature_3/gamma"
      }
    }
  }
}
node {
  name: "WeightSharedConvolutionalBoxPredictor/BoxPredictionTower/conv2d_0/BatchNorm/feature_3/beta"
  op: "Const"
  attr {
    key: "dtype"
    value {
      type: DT_FLOAT
    }
  }
  attr {
    key: "value"
    value {
      tensor {
        dtype: DT_FLOAT
        tensor_shape {
          dim {
            size: 256
          }
        }
      }
    }
  }
}
node {
  name: "WeightSharedConvolutionalBoxPredictor/BoxPredictionTower/conv2d_0/BatchNorm/feature_3/beta/read"
  op: "Identity"
  input: "WeightSharedConvolutionalBoxPredictor/BoxPredictionTower/conv2d_0/BatchNorm/feature_3/beta"
  attr {
    key: "T"
    value {
      type: DT_FLOAT
    }
  }
  attr {
    key: "_class"
    value {
      list {
        s: "loc:@WeightSharedConvolutionalBoxPredictor/BoxPredictionTower/conv2d_0/BatchNorm/feature_3/beta"
      }
    }
  }
}
node {
  name: "WeightSharedConvolutionalBoxPredictor_2/Reshape_1/shape/2"
  op: "Const"
  attr {
    key: "dtype"
    value {
      type: DT_INT32
    }
  }
  attr {
    key: "value"
    value {
      tensor {
        dtype: DT_INT32
        tensor_shape {
        }
        int_val: 2
      }
    }
  }
}
node {
  name: "WeightSharedConvolutionalBoxPredictor_2/Reshape_1/shape/1"
  op: "Const"
  attr {
    key: "dtype"
    value {
      type: DT_INT32
    }
  }
  attr {
    key: "value"
    value {
      tensor {
        dtype: DT_INT32
        tensor_shape {
        }
        int_val: -1
      }
    }
  }
}
node {
  name: "WeightSharedConvolutionalBoxPredictor_2/strided_slice_1/stack_2"
  op: "Const"
  attr {
    key: "dtype"
    value {
      type: DT_INT32
    }
  }
  attr {
    key: "value"
    value {
      tensor {
        dtype: DT_INT32
        tensor_shape {
          dim {
            size: 1
          }
        }
        int_val: 1
      }
    }
  }
}
node {
  name: "WeightSharedConvolutionalBoxPredictor_2/strided_slice_1/stack_1"
  op: "Const"
  attr {
    key: "dtype"
    value {
      type: DT_INT32
    }
  }
  attr {
    key: "value"
    value {
      tensor {
        dtype: DT_INT32
        tensor_shape {
          dim {
            size: 1
          }
        }
        int_val: 1
      }
    }
  }
}
node {
  name: "WeightSharedConvolutionalBoxPredictor_2/strided_slice_1/stack"
  op: "Const"
  attr {
    key: "dtype"
    value {
      type: DT_INT32
    }
  }
  attr {
    key: "value"
    value {
      tensor {
        dtype: DT_INT32
        tensor_shape {
          dim {
            size: 1
          }
        }
        int_val: 0
      }
    }
  }
}
node {
  name: "WeightSharedConvolutionalBoxPredictor/ClassPredictionTower/conv2d_3/BatchNorm/feature_2/moving_variance"
  op: "Const"
  attr {
    key: "dtype"
    value {
      type: DT_FLOAT
    }
  }
  attr {
    key: "value"
    value {
      tensor {
        dtype: DT_FLOAT
        tensor_shape {
          dim {
            size: 256
          }
        }
      }
    }
  }
}
node {
  name: "WeightSharedConvolutionalBoxPredictor/ClassPredictionTower/conv2d_3/BatchNorm/feature_2/moving_variance/read"
  op: "Identity"
  input: "WeightSharedConvolutionalBoxPredictor/ClassPredictionTower/conv2d_3/BatchNorm/feature_2/moving_variance"
  attr {
    key: "T"
    value {
      type: DT_FLOAT
    }
  }
  attr {
    key: "_class"
    value {
      list {
        s: "loc:@WeightSharedConvolutionalBoxPredictor/ClassPredictionTower/conv2d_3/BatchNorm/feature_2/moving_variance"
      }
    }
  }
}
node {
  name: "WeightSharedConvolutionalBoxPredictor/ClassPredictionTower/conv2d_3/BatchNorm/feature_2/moving_mean"
  op: "Const"
  attr {
    key: "dtype"
    value {
      type: DT_FLOAT
    }
  }
  attr {
    key: "value"
    value {
      tensor {
        dtype: DT_FLOAT
        tensor_shape {
          dim {
            size: 256
          }
        }
      }
    }
  }
}
node {
  name: "WeightSharedConvolutionalBoxPredictor/ClassPredictionTower/conv2d_3/BatchNorm/feature_2/moving_mean/read"
  op: "Identity"
  input: "WeightSharedConvolutionalBoxPredictor/ClassPredictionTower/conv2d_3/BatchNorm/feature_2/moving_mean"
  attr {
    key: "T"
    value {
      type: DT_FLOAT
    }
  }
  attr {
    key: "_class"
    value {
      list {
        s: "loc:@WeightSharedConvolutionalBoxPredictor/ClassPredictionTower/conv2d_3/BatchNorm/feature_2/moving_mean"
      }
    }
  }
}
node {
  name: "WeightSharedConvolutionalBoxPredictor/ClassPredictionTower/conv2d_3/BatchNorm/feature_2/gamma"
  op: "Const"
  attr {
    key: "dtype"
    value {
      type: DT_FLOAT
    }
  }
  attr {
    key: "value"
    value {
      tensor {
        dtype: DT_FLOAT
        tensor_shape {
          dim {
            size: 256
          }
        }
      }
    }
  }
}
node {
  name: "WeightSharedConvolutionalBoxPredictor/ClassPredictionTower/conv2d_3/BatchNorm/feature_2/gamma/read"
  op: "Identity"
  input: "WeightSharedConvolutionalBoxPredictor/ClassPredictionTower/conv2d_3/BatchNorm/feature_2/gamma"
  attr {
    key: "T"
    value {
      type: DT_FLOAT
    }
  }
  attr {
    key: "_class"
    value {
      list {
        s: "loc:@WeightSharedConvolutionalBoxPredictor/ClassPredictionTower/conv2d_3/BatchNorm/feature_2/gamma"
      }
    }
  }
}
node {
  name: "WeightSharedConvolutionalBoxPredictor/ClassPredictionTower/conv2d_3/BatchNorm/feature_2/beta"
  op: "Const"
  attr {
    key: "dtype"
    value {
      type: DT_FLOAT
    }
  }
  attr {
    key: "value"
    value {
      tensor {
        dtype: DT_FLOAT
        tensor_shape {
          dim {
            size: 256
          }
        }
      }
    }
  }
}
node {
  name: "WeightSharedConvolutionalBoxPredictor/ClassPredictionTower/conv2d_3/BatchNorm/feature_2/beta/read"
  op: "Identity"
  input: "WeightSharedConvolutionalBoxPredictor/ClassPredictionTower/conv2d_3/BatchNorm/feature_2/beta"
  attr {
    key: "T"
    value {
      type: DT_FLOAT
    }
  }
  attr {
    key: "_class"
    value {
      list {
        s: "loc:@WeightSharedConvolutionalBoxPredictor/ClassPredictionTower/conv2d_3/BatchNorm/feature_2/beta"
      }
    }
  }
}
node {
  name: "WeightSharedConvolutionalBoxPredictor/ClassPredictionTower/conv2d_2/BatchNorm/feature_2/moving_variance"
  op: "Const"
  attr {
    key: "dtype"
    value {
      type: DT_FLOAT
    }
  }
  attr {
    key: "value"
    value {
      tensor {
        dtype: DT_FLOAT
        tensor_shape {
          dim {
            size: 256
          }
        }
      }
    }
  }
}
node {
  name: "WeightSharedConvolutionalBoxPredictor/ClassPredictionTower/conv2d_2/BatchNorm/feature_2/moving_variance/read"
  op: "Identity"
  input: "WeightSharedConvolutionalBoxPredictor/ClassPredictionTower/conv2d_2/BatchNorm/feature_2/moving_variance"
  attr {
    key: "T"
    value {
      type: DT_FLOAT
    }
  }
  attr {
    key: "_class"
    value {
      list {
        s: "loc:@WeightSharedConvolutionalBoxPredictor/ClassPredictionTower/conv2d_2/BatchNorm/feature_2/moving_variance"
      }
    }
  }
}
node {
  name: "WeightSharedConvolutionalBoxPredictor/ClassPredictionTower/conv2d_2/BatchNorm/feature_2/moving_mean"
  op: "Const"
  attr {
    key: "dtype"
    value {
      type: DT_FLOAT
    }
  }
  attr {
    key: "value"
    value {
      tensor {
        dtype: DT_FLOAT
        tensor_shape {
          dim {
            size: 256
          }
        }
      }
    }
  }
}
node {
  name: "WeightSharedConvolutionalBoxPredictor/ClassPredictionTower/conv2d_2/BatchNorm/feature_2/moving_mean/read"
  op: "Identity"
  input: "WeightSharedConvolutionalBoxPredictor/ClassPredictionTower/conv2d_2/BatchNorm/feature_2/moving_mean"
  attr {
    key: "T"
    value {
      type: DT_FLOAT
    }
  }
  attr {
    key: "_class"
    value {
      list {
        s: "loc:@WeightSharedConvolutionalBoxPredictor/ClassPredictionTower/conv2d_2/BatchNorm/feature_2/moving_mean"
      }
    }
  }
}
node {
  name: "WeightSharedConvolutionalBoxPredictor/ClassPredictionTower/conv2d_2/BatchNorm/feature_2/gamma"
  op: "Const"
  attr {
    key: "dtype"
    value {
      type: DT_FLOAT
    }
  }
  attr {
    key: "value"
    value {
      tensor {
        dtype: DT_FLOAT
        tensor_shape {
          dim {
            size: 256
          }
        }
      }
    }
  }
}
node {
  name: "WeightSharedConvolutionalBoxPredictor/ClassPredictionTower/conv2d_2/BatchNorm/feature_2/gamma/read"
  op: "Identity"
  input: "WeightSharedConvolutionalBoxPredictor/ClassPredictionTower/conv2d_2/BatchNorm/feature_2/gamma"
  attr {
    key: "T"
    value {
      type: DT_FLOAT
    }
  }
  attr {
    key: "_class"
    value {
      list {
        s: "loc:@WeightSharedConvolutionalBoxPredictor/ClassPredictionTower/conv2d_2/BatchNorm/feature_2/gamma"
      }
    }
  }
}
node {
  name: "WeightSharedConvolutionalBoxPredictor/ClassPredictionTower/conv2d_2/BatchNorm/feature_2/beta"
  op: "Const"
  attr {
    key: "dtype"
    value {
      type: DT_FLOAT
    }
  }
  attr {
    key: "value"
    value {
      tensor {
        dtype: DT_FLOAT
        tensor_shape {
          dim {
            size: 256
          }
        }
      }
    }
  }
}
node {
  name: "WeightSharedConvolutionalBoxPredictor/ClassPredictionTower/conv2d_2/BatchNorm/feature_2/beta/read"
  op: "Identity"
  input: "WeightSharedConvolutionalBoxPredictor/ClassPredictionTower/conv2d_2/BatchNorm/feature_2/beta"
  attr {
    key: "T"
    value {
      type: DT_FLOAT
    }
  }
  attr {
    key: "_class"
    value {
      list {
        s: "loc:@WeightSharedConvolutionalBoxPredictor/ClassPredictionTower/conv2d_2/BatchNorm/feature_2/beta"
      }
    }
  }
}
node {
  name: "WeightSharedConvolutionalBoxPredictor/ClassPredictionTower/conv2d_1/BatchNorm/feature_2/moving_variance"
  op: "Const"
  attr {
    key: "dtype"
    value {
      type: DT_FLOAT
    }
  }
  attr {
    key: "value"
    value {
      tensor {
        dtype: DT_FLOAT
        tensor_shape {
          dim {
            size: 256
          }
        }
      }
    }
  }
}
node {
  name: "WeightSharedConvolutionalBoxPredictor/ClassPredictionTower/conv2d_1/BatchNorm/feature_2/moving_variance/read"
  op: "Identity"
  input: "WeightSharedConvolutionalBoxPredictor/ClassPredictionTower/conv2d_1/BatchNorm/feature_2/moving_variance"
  attr {
    key: "T"
    value {
      type: DT_FLOAT
    }
  }
  attr {
    key: "_class"
    value {
      list {
        s: "loc:@WeightSharedConvolutionalBoxPredictor/ClassPredictionTower/conv2d_1/BatchNorm/feature_2/moving_variance"
      }
    }
  }
}
node {
  name: "WeightSharedConvolutionalBoxPredictor/ClassPredictionTower/conv2d_1/BatchNorm/feature_2/moving_mean"
  op: "Const"
  attr {
    key: "dtype"
    value {
      type: DT_FLOAT
    }
  }
  attr {
    key: "value"
    value {
      tensor {
        dtype: DT_FLOAT
        tensor_shape {
          dim {
            size: 256
          }
        }
      }
    }
  }
}
node {
  name: "WeightSharedConvolutionalBoxPredictor/ClassPredictionTower/conv2d_1/BatchNorm/feature_2/moving_mean/read"
  op: "Identity"
  input: "WeightSharedConvolutionalBoxPredictor/ClassPredictionTower/conv2d_1/BatchNorm/feature_2/moving_mean"
  attr {
    key: "T"
    value {
      type: DT_FLOAT
    }
  }
  attr {
    key: "_class"
    value {
      list {
        s: "loc:@WeightSharedConvolutionalBoxPredictor/ClassPredictionTower/conv2d_1/BatchNorm/feature_2/moving_mean"
      }
    }
  }
}
node {
  name: "WeightSharedConvolutionalBoxPredictor/ClassPredictionTower/conv2d_1/BatchNorm/feature_2/gamma"
  op: "Const"
  attr {
    key: "dtype"
    value {
      type: DT_FLOAT
    }
  }
  attr {
    key: "value"
    value {
      tensor {
        dtype: DT_FLOAT
        tensor_shape {
          dim {
            size: 256
          }
        }
      }
    }
  }
}
node {
  name: "WeightSharedConvolutionalBoxPredictor/ClassPredictionTower/conv2d_1/BatchNorm/feature_2/gamma/read"
  op: "Identity"
  input: "WeightSharedConvolutionalBoxPredictor/ClassPredictionTower/conv2d_1/BatchNorm/feature_2/gamma"
  attr {
    key: "T"
    value {
      type: DT_FLOAT
    }
  }
  attr {
    key: "_class"
    value {
      list {
        s: "loc:@WeightSharedConvolutionalBoxPredictor/ClassPredictionTower/conv2d_1/BatchNorm/feature_2/gamma"
      }
    }
  }
}
node {
  name: "WeightSharedConvolutionalBoxPredictor/ClassPredictionTower/conv2d_1/BatchNorm/feature_2/beta"
  op: "Const"
  attr {
    key: "dtype"
    value {
      type: DT_FLOAT
    }
  }
  attr {
    key: "value"
    value {
      tensor {
        dtype: DT_FLOAT
        tensor_shape {
          dim {
            size: 256
          }
        }
      }
    }
  }
}
node {
  name: "WeightSharedConvolutionalBoxPredictor/ClassPredictionTower/conv2d_1/BatchNorm/feature_2/beta/read"
  op: "Identity"
  input: "WeightSharedConvolutionalBoxPredictor/ClassPredictionTower/conv2d_1/BatchNorm/feature_2/beta"
  attr {
    key: "T"
    value {
      type: DT_FLOAT
    }
  }
  attr {
    key: "_class"
    value {
      list {
        s: "loc:@WeightSharedConvolutionalBoxPredictor/ClassPredictionTower/conv2d_1/BatchNorm/feature_2/beta"
      }
    }
  }
}
node {
  name: "WeightSharedConvolutionalBoxPredictor/ClassPredictionTower/conv2d_0/BatchNorm/feature_2/moving_variance"
  op: "Const"
  attr {
    key: "dtype"
    value {
      type: DT_FLOAT
    }
  }
  attr {
    key: "value"
    value {
      tensor {
        dtype: DT_FLOAT
        tensor_shape {
          dim {
            size: 256
          }
        }
      }
    }
  }
}
node {
  name: "WeightSharedConvolutionalBoxPredictor/ClassPredictionTower/conv2d_0/BatchNorm/feature_2/moving_variance/read"
  op: "Identity"
  input: "WeightSharedConvolutionalBoxPredictor/ClassPredictionTower/conv2d_0/BatchNorm/feature_2/moving_variance"
  attr {
    key: "T"
    value {
      type: DT_FLOAT
    }
  }
  attr {
    key: "_class"
    value {
      list {
        s: "loc:@WeightSharedConvolutionalBoxPredictor/ClassPredictionTower/conv2d_0/BatchNorm/feature_2/moving_variance"
      }
    }
  }
}
node {
  name: "WeightSharedConvolutionalBoxPredictor/ClassPredictionTower/conv2d_0/BatchNorm/feature_2/moving_mean"
  op: "Const"
  attr {
    key: "dtype"
    value {
      type: DT_FLOAT
    }
  }
  attr {
    key: "value"
    value {
      tensor {
        dtype: DT_FLOAT
        tensor_shape {
          dim {
            size: 256
          }
        }
      }
    }
  }
}
node {
  name: "WeightSharedConvolutionalBoxPredictor/ClassPredictionTower/conv2d_0/BatchNorm/feature_2/moving_mean/read"
  op: "Identity"
  input: "WeightSharedConvolutionalBoxPredictor/ClassPredictionTower/conv2d_0/BatchNorm/feature_2/moving_mean"
  attr {
    key: "T"
    value {
      type: DT_FLOAT
    }
  }
  attr {
    key: "_class"
    value {
      list {
        s: "loc:@WeightSharedConvolutionalBoxPredictor/ClassPredictionTower/conv2d_0/BatchNorm/feature_2/moving_mean"
      }
    }
  }
}
node {
  name: "WeightSharedConvolutionalBoxPredictor/ClassPredictionTower/conv2d_0/BatchNorm/feature_2/gamma"
  op: "Const"
  attr {
    key: "dtype"
    value {
      type: DT_FLOAT
    }
  }
  attr {
    key: "value"
    value {
      tensor {
        dtype: DT_FLOAT
        tensor_shape {
          dim {
            size: 256
          }
        }
      }
    }
  }
}
node {
  name: "WeightSharedConvolutionalBoxPredictor/ClassPredictionTower/conv2d_0/BatchNorm/feature_2/gamma/read"
  op: "Identity"
  input: "WeightSharedConvolutionalBoxPredictor/ClassPredictionTower/conv2d_0/BatchNorm/feature_2/gamma"
  attr {
    key: "T"
    value {
      type: DT_FLOAT
    }
  }
  attr {
    key: "_class"
    value {
      list {
        s: "loc:@WeightSharedConvolutionalBoxPredictor/ClassPredictionTower/conv2d_0/BatchNorm/feature_2/gamma"
      }
    }
  }
}
node {
  name: "WeightSharedConvolutionalBoxPredictor/ClassPredictionTower/conv2d_0/BatchNorm/feature_2/beta"
  op: "Const"
  attr {
    key: "dtype"
    value {
      type: DT_FLOAT
    }
  }
  attr {
    key: "value"
    value {
      tensor {
        dtype: DT_FLOAT
        tensor_shape {
          dim {
            size: 256
          }
        }
      }
    }
  }
}
node {
  name: "WeightSharedConvolutionalBoxPredictor/ClassPredictionTower/conv2d_0/BatchNorm/feature_2/beta/read"
  op: "Identity"
  input: "WeightSharedConvolutionalBoxPredictor/ClassPredictionTower/conv2d_0/BatchNorm/feature_2/beta"
  attr {
    key: "T"
    value {
      type: DT_FLOAT
    }
  }
  attr {
    key: "_class"
    value {
      list {
        s: "loc:@WeightSharedConvolutionalBoxPredictor/ClassPredictionTower/conv2d_0/BatchNorm/feature_2/beta"
      }
    }
  }
}
node {
  name: "WeightSharedConvolutionalBoxPredictor_2/Reshape/shape/2"
  op: "Const"
  attr {
    key: "dtype"
    value {
      type: DT_INT32
    }
  }
  attr {
    key: "value"
    value {
      tensor {
        dtype: DT_INT32
        tensor_shape {
        }
        int_val: 4
      }
    }
  }
}
node {
  name: "WeightSharedConvolutionalBoxPredictor_2/Reshape/shape/1"
  op: "Const"
  attr {
    key: "dtype"
    value {
      type: DT_INT32
    }
  }
  attr {
    key: "value"
    value {
      tensor {
        dtype: DT_INT32
        tensor_shape {
        }
        int_val: -1
      }
    }
  }
}
node {
  name: "WeightSharedConvolutionalBoxPredictor_2/strided_slice/stack_2"
  op: "Const"
  attr {
    key: "dtype"
    value {
      type: DT_INT32
    }
  }
  attr {
    key: "value"
    value {
      tensor {
        dtype: DT_INT32
        tensor_shape {
          dim {
            size: 1
          }
        }
        int_val: 1
      }
    }
  }
}
node {
  name: "WeightSharedConvolutionalBoxPredictor_2/strided_slice/stack_1"
  op: "Const"
  attr {
    key: "dtype"
    value {
      type: DT_INT32
    }
  }
  attr {
    key: "value"
    value {
      tensor {
        dtype: DT_INT32
        tensor_shape {
          dim {
            size: 1
          }
        }
        int_val: 1
      }
    }
  }
}
node {
  name: "WeightSharedConvolutionalBoxPredictor_2/strided_slice/stack"
  op: "Const"
  attr {
    key: "dtype"
    value {
      type: DT_INT32
    }
  }
  attr {
    key: "value"
    value {
      tensor {
        dtype: DT_INT32
        tensor_shape {
          dim {
            size: 1
          }
        }
        int_val: 0
      }
    }
  }
}
node {
  name: "WeightSharedConvolutionalBoxPredictor/BoxPredictionTower/conv2d_3/BatchNorm/feature_2/moving_variance"
  op: "Const"
  attr {
    key: "dtype"
    value {
      type: DT_FLOAT
    }
  }
  attr {
    key: "value"
    value {
      tensor {
        dtype: DT_FLOAT
        tensor_shape {
          dim {
            size: 256
          }
        }
      }
    }
  }
}
node {
  name: "WeightSharedConvolutionalBoxPredictor/BoxPredictionTower/conv2d_3/BatchNorm/feature_2/moving_variance/read"
  op: "Identity"
  input: "WeightSharedConvolutionalBoxPredictor/BoxPredictionTower/conv2d_3/BatchNorm/feature_2/moving_variance"
  attr {
    key: "T"
    value {
      type: DT_FLOAT
    }
  }
  attr {
    key: "_class"
    value {
      list {
        s: "loc:@WeightSharedConvolutionalBoxPredictor/BoxPredictionTower/conv2d_3/BatchNorm/feature_2/moving_variance"
      }
    }
  }
}
node {
  name: "WeightSharedConvolutionalBoxPredictor/BoxPredictionTower/conv2d_3/BatchNorm/feature_2/moving_mean"
  op: "Const"
  attr {
    key: "dtype"
    value {
      type: DT_FLOAT
    }
  }
  attr {
    key: "value"
    value {
      tensor {
        dtype: DT_FLOAT
        tensor_shape {
          dim {
            size: 256
          }
        }
      }
    }
  }
}
node {
  name: "WeightSharedConvolutionalBoxPredictor/BoxPredictionTower/conv2d_3/BatchNorm/feature_2/moving_mean/read"
  op: "Identity"
  input: "WeightSharedConvolutionalBoxPredictor/BoxPredictionTower/conv2d_3/BatchNorm/feature_2/moving_mean"
  attr {
    key: "T"
    value {
      type: DT_FLOAT
    }
  }
  attr {
    key: "_class"
    value {
      list {
        s: "loc:@WeightSharedConvolutionalBoxPredictor/BoxPredictionTower/conv2d_3/BatchNorm/feature_2/moving_mean"
      }
    }
  }
}
node {
  name: "WeightSharedConvolutionalBoxPredictor/BoxPredictionTower/conv2d_3/BatchNorm/feature_2/gamma"
  op: "Const"
  attr {
    key: "dtype"
    value {
      type: DT_FLOAT
    }
  }
  attr {
    key: "value"
    value {
      tensor {
        dtype: DT_FLOAT
        tensor_shape {
          dim {
            size: 256
          }
        }
      }
    }
  }
}
node {
  name: "WeightSharedConvolutionalBoxPredictor/BoxPredictionTower/conv2d_3/BatchNorm/feature_2/gamma/read"
  op: "Identity"
  input: "WeightSharedConvolutionalBoxPredictor/BoxPredictionTower/conv2d_3/BatchNorm/feature_2/gamma"
  attr {
    key: "T"
    value {
      type: DT_FLOAT
    }
  }
  attr {
    key: "_class"
    value {
      list {
        s: "loc:@WeightSharedConvolutionalBoxPredictor/BoxPredictionTower/conv2d_3/BatchNorm/feature_2/gamma"
      }
    }
  }
}
node {
  name: "WeightSharedConvolutionalBoxPredictor/BoxPredictionTower/conv2d_3/BatchNorm/feature_2/beta"
  op: "Const"
  attr {
    key: "dtype"
    value {
      type: DT_FLOAT
    }
  }
  attr {
    key: "value"
    value {
      tensor {
        dtype: DT_FLOAT
        tensor_shape {
          dim {
            size: 256
          }
        }
      }
    }
  }
}
node {
  name: "WeightSharedConvolutionalBoxPredictor/BoxPredictionTower/conv2d_3/BatchNorm/feature_2/beta/read"
  op: "Identity"
  input: "WeightSharedConvolutionalBoxPredictor/BoxPredictionTower/conv2d_3/BatchNorm/feature_2/beta"
  attr {
    key: "T"
    value {
      type: DT_FLOAT
    }
  }
  attr {
    key: "_class"
    value {
      list {
        s: "loc:@WeightSharedConvolutionalBoxPredictor/BoxPredictionTower/conv2d_3/BatchNorm/feature_2/beta"
      }
    }
  }
}
node {
  name: "WeightSharedConvolutionalBoxPredictor/BoxPredictionTower/conv2d_2/BatchNorm/feature_2/moving_variance"
  op: "Const"
  attr {
    key: "dtype"
    value {
      type: DT_FLOAT
    }
  }
  attr {
    key: "value"
    value {
      tensor {
        dtype: DT_FLOAT
        tensor_shape {
          dim {
            size: 256
          }
        }
      }
    }
  }
}
node {
  name: "WeightSharedConvolutionalBoxPredictor/BoxPredictionTower/conv2d_2/BatchNorm/feature_2/moving_variance/read"
  op: "Identity"
  input: "WeightSharedConvolutionalBoxPredictor/BoxPredictionTower/conv2d_2/BatchNorm/feature_2/moving_variance"
  attr {
    key: "T"
    value {
      type: DT_FLOAT
    }
  }
  attr {
    key: "_class"
    value {
      list {
        s: "loc:@WeightSharedConvolutionalBoxPredictor/BoxPredictionTower/conv2d_2/BatchNorm/feature_2/moving_variance"
      }
    }
  }
}
node {
  name: "WeightSharedConvolutionalBoxPredictor/BoxPredictionTower/conv2d_2/BatchNorm/feature_2/moving_mean"
  op: "Const"
  attr {
    key: "dtype"
    value {
      type: DT_FLOAT
    }
  }
  attr {
    key: "value"
    value {
      tensor {
        dtype: DT_FLOAT
        tensor_shape {
          dim {
            size: 256
          }
        }
      }
    }
  }
}
node {
  name: "WeightSharedConvolutionalBoxPredictor/BoxPredictionTower/conv2d_2/BatchNorm/feature_2/moving_mean/read"
  op: "Identity"
  input: "WeightSharedConvolutionalBoxPredictor/BoxPredictionTower/conv2d_2/BatchNorm/feature_2/moving_mean"
  attr {
    key: "T"
    value {
      type: DT_FLOAT
    }
  }
  attr {
    key: "_class"
    value {
      list {
        s: "loc:@WeightSharedConvolutionalBoxPredictor/BoxPredictionTower/conv2d_2/BatchNorm/feature_2/moving_mean"
      }
    }
  }
}
node {
  name: "WeightSharedConvolutionalBoxPredictor/BoxPredictionTower/conv2d_2/BatchNorm/feature_2/gamma"
  op: "Const"
  attr {
    key: "dtype"
    value {
      type: DT_FLOAT
    }
  }
  attr {
    key: "value"
    value {
      tensor {
        dtype: DT_FLOAT
        tensor_shape {
          dim {
            size: 256
          }
        }
      }
    }
  }
}
node {
  name: "WeightSharedConvolutionalBoxPredictor/BoxPredictionTower/conv2d_2/BatchNorm/feature_2/gamma/read"
  op: "Identity"
  input: "WeightSharedConvolutionalBoxPredictor/BoxPredictionTower/conv2d_2/BatchNorm/feature_2/gamma"
  attr {
    key: "T"
    value {
      type: DT_FLOAT
    }
  }
  attr {
    key: "_class"
    value {
      list {
        s: "loc:@WeightSharedConvolutionalBoxPredictor/BoxPredictionTower/conv2d_2/BatchNorm/feature_2/gamma"
      }
    }
  }
}
node {
  name: "WeightSharedConvolutionalBoxPredictor/BoxPredictionTower/conv2d_2/BatchNorm/feature_2/beta"
  op: "Const"
  attr {
    key: "dtype"
    value {
      type: DT_FLOAT
    }
  }
  attr {
    key: "value"
    value {
      tensor {
        dtype: DT_FLOAT
        tensor_shape {
          dim {
            size: 256
          }
        }
      }
    }
  }
}
node {
  name: "WeightSharedConvolutionalBoxPredictor/BoxPredictionTower/conv2d_2/BatchNorm/feature_2/beta/read"
  op: "Identity"
  input: "WeightSharedConvolutionalBoxPredictor/BoxPredictionTower/conv2d_2/BatchNorm/feature_2/beta"
  attr {
    key: "T"
    value {
      type: DT_FLOAT
    }
  }
  attr {
    key: "_class"
    value {
      list {
        s: "loc:@WeightSharedConvolutionalBoxPredictor/BoxPredictionTower/conv2d_2/BatchNorm/feature_2/beta"
      }
    }
  }
}
node {
  name: "WeightSharedConvolutionalBoxPredictor/BoxPredictionTower/conv2d_1/BatchNorm/feature_2/moving_variance"
  op: "Const"
  attr {
    key: "dtype"
    value {
      type: DT_FLOAT
    }
  }
  attr {
    key: "value"
    value {
      tensor {
        dtype: DT_FLOAT
        tensor_shape {
          dim {
            size: 256
          }
        }
      }
    }
  }
}
node {
  name: "WeightSharedConvolutionalBoxPredictor/BoxPredictionTower/conv2d_1/BatchNorm/feature_2/moving_variance/read"
  op: "Identity"
  input: "WeightSharedConvolutionalBoxPredictor/BoxPredictionTower/conv2d_1/BatchNorm/feature_2/moving_variance"
  attr {
    key: "T"
    value {
      type: DT_FLOAT
    }
  }
  attr {
    key: "_class"
    value {
      list {
        s: "loc:@WeightSharedConvolutionalBoxPredictor/BoxPredictionTower/conv2d_1/BatchNorm/feature_2/moving_variance"
      }
    }
  }
}
node {
  name: "WeightSharedConvolutionalBoxPredictor/BoxPredictionTower/conv2d_1/BatchNorm/feature_2/moving_mean"
  op: "Const"
  attr {
    key: "dtype"
    value {
      type: DT_FLOAT
    }
  }
  attr {
    key: "value"
    value {
      tensor {
        dtype: DT_FLOAT
        tensor_shape {
          dim {
            size: 256
          }
        }
      }
    }
  }
}
node {
  name: "WeightSharedConvolutionalBoxPredictor/BoxPredictionTower/conv2d_1/BatchNorm/feature_2/moving_mean/read"
  op: "Identity"
  input: "WeightSharedConvolutionalBoxPredictor/BoxPredictionTower/conv2d_1/BatchNorm/feature_2/moving_mean"
  attr {
    key: "T"
    value {
      type: DT_FLOAT
    }
  }
  attr {
    key: "_class"
    value {
      list {
        s: "loc:@WeightSharedConvolutionalBoxPredictor/BoxPredictionTower/conv2d_1/BatchNorm/feature_2/moving_mean"
      }
    }
  }
}
node {
  name: "WeightSharedConvolutionalBoxPredictor/BoxPredictionTower/conv2d_1/BatchNorm/feature_2/gamma"
  op: "Const"
  attr {
    key: "dtype"
    value {
      type: DT_FLOAT
    }
  }
  attr {
    key: "value"
    value {
      tensor {
        dtype: DT_FLOAT
        tensor_shape {
          dim {
            size: 256
          }
        }
      }
    }
  }
}
node {
  name: "WeightSharedConvolutionalBoxPredictor/BoxPredictionTower/conv2d_1/BatchNorm/feature_2/gamma/read"
  op: "Identity"
  input: "WeightSharedConvolutionalBoxPredictor/BoxPredictionTower/conv2d_1/BatchNorm/feature_2/gamma"
  attr {
    key: "T"
    value {
      type: DT_FLOAT
    }
  }
  attr {
    key: "_class"
    value {
      list {
        s: "loc:@WeightSharedConvolutionalBoxPredictor/BoxPredictionTower/conv2d_1/BatchNorm/feature_2/gamma"
      }
    }
  }
}
node {
  name: "WeightSharedConvolutionalBoxPredictor/BoxPredictionTower/conv2d_1/BatchNorm/feature_2/beta"
  op: "Const"
  attr {
    key: "dtype"
    value {
      type: DT_FLOAT
    }
  }
  attr {
    key: "value"
    value {
      tensor {
        dtype: DT_FLOAT
        tensor_shape {
          dim {
            size: 256
          }
        }
      }
    }
  }
}
node {
  name: "WeightSharedConvolutionalBoxPredictor/BoxPredictionTower/conv2d_1/BatchNorm/feature_2/beta/read"
  op: "Identity"
  input: "WeightSharedConvolutionalBoxPredictor/BoxPredictionTower/conv2d_1/BatchNorm/feature_2/beta"
  attr {
    key: "T"
    value {
      type: DT_FLOAT
    }
  }
  attr {
    key: "_class"
    value {
      list {
        s: "loc:@WeightSharedConvolutionalBoxPredictor/BoxPredictionTower/conv2d_1/BatchNorm/feature_2/beta"
      }
    }
  }
}
node {
  name: "WeightSharedConvolutionalBoxPredictor/BoxPredictionTower/conv2d_0/BatchNorm/feature_2/moving_variance"
  op: "Const"
  attr {
    key: "dtype"
    value {
      type: DT_FLOAT
    }
  }
  attr {
    key: "value"
    value {
      tensor {
        dtype: DT_FLOAT
        tensor_shape {
          dim {
            size: 256
          }
        }
      }
    }
  }
}
node {
  name: "WeightSharedConvolutionalBoxPredictor/BoxPredictionTower/conv2d_0/BatchNorm/feature_2/moving_variance/read"
  op: "Identity"
  input: "WeightSharedConvolutionalBoxPredictor/BoxPredictionTower/conv2d_0/BatchNorm/feature_2/moving_variance"
  attr {
    key: "T"
    value {
      type: DT_FLOAT
    }
  }
  attr {
    key: "_class"
    value {
      list {
        s: "loc:@WeightSharedConvolutionalBoxPredictor/BoxPredictionTower/conv2d_0/BatchNorm/feature_2/moving_variance"
      }
    }
  }
}
node {
  name: "WeightSharedConvolutionalBoxPredictor/BoxPredictionTower/conv2d_0/BatchNorm/feature_2/moving_mean"
  op: "Const"
  attr {
    key: "dtype"
    value {
      type: DT_FLOAT
    }
  }
  attr {
    key: "value"
    value {
      tensor {
        dtype: DT_FLOAT
        tensor_shape {
          dim {
            size: 256
          }
        }
      }
    }
  }
}
node {
  name: "WeightSharedConvolutionalBoxPredictor/BoxPredictionTower/conv2d_0/BatchNorm/feature_2/moving_mean/read"
  op: "Identity"
  input: "WeightSharedConvolutionalBoxPredictor/BoxPredictionTower/conv2d_0/BatchNorm/feature_2/moving_mean"
  attr {
    key: "T"
    value {
      type: DT_FLOAT
    }
  }
  attr {
    key: "_class"
    value {
      list {
        s: "loc:@WeightSharedConvolutionalBoxPredictor/BoxPredictionTower/conv2d_0/BatchNorm/feature_2/moving_mean"
      }
    }
  }
}
node {
  name: "WeightSharedConvolutionalBoxPredictor/BoxPredictionTower/conv2d_0/BatchNorm/feature_2/gamma"
  op: "Const"
  attr {
    key: "dtype"
    value {
      type: DT_FLOAT
    }
  }
  attr {
    key: "value"
    value {
      tensor {
        dtype: DT_FLOAT
        tensor_shape {
          dim {
            size: 256
          }
        }
      }
    }
  }
}
node {
  name: "WeightSharedConvolutionalBoxPredictor/BoxPredictionTower/conv2d_0/BatchNorm/feature_2/gamma/read"
  op: "Identity"
  input: "WeightSharedConvolutionalBoxPredictor/BoxPredictionTower/conv2d_0/BatchNorm/feature_2/gamma"
  attr {
    key: "T"
    value {
      type: DT_FLOAT
    }
  }
  attr {
    key: "_class"
    value {
      list {
        s: "loc:@WeightSharedConvolutionalBoxPredictor/BoxPredictionTower/conv2d_0/BatchNorm/feature_2/gamma"
      }
    }
  }
}
node {
  name: "WeightSharedConvolutionalBoxPredictor/BoxPredictionTower/conv2d_0/BatchNorm/feature_2/beta"
  op: "Const"
  attr {
    key: "dtype"
    value {
      type: DT_FLOAT
    }
  }
  attr {
    key: "value"
    value {
      tensor {
        dtype: DT_FLOAT
        tensor_shape {
          dim {
            size: 256
          }
        }
      }
    }
  }
}
node {
  name: "WeightSharedConvolutionalBoxPredictor/BoxPredictionTower/conv2d_0/BatchNorm/feature_2/beta/read"
  op: "Identity"
  input: "WeightSharedConvolutionalBoxPredictor/BoxPredictionTower/conv2d_0/BatchNorm/feature_2/beta"
  attr {
    key: "T"
    value {
      type: DT_FLOAT
    }
  }
  attr {
    key: "_class"
    value {
      list {
        s: "loc:@WeightSharedConvolutionalBoxPredictor/BoxPredictionTower/conv2d_0/BatchNorm/feature_2/beta"
      }
    }
  }
}
node {
  name: "WeightSharedConvolutionalBoxPredictor_1/Reshape_1/shape/2"
  op: "Const"
  attr {
    key: "dtype"
    value {
      type: DT_INT32
    }
  }
  attr {
    key: "value"
    value {
      tensor {
        dtype: DT_INT32
        tensor_shape {
        }
        int_val: 2
      }
    }
  }
}
node {
  name: "WeightSharedConvolutionalBoxPredictor_1/Reshape_1/shape/1"
  op: "Const"
  attr {
    key: "dtype"
    value {
      type: DT_INT32
    }
  }
  attr {
    key: "value"
    value {
      tensor {
        dtype: DT_INT32
        tensor_shape {
        }
        int_val: -1
      }
    }
  }
}
node {
  name: "WeightSharedConvolutionalBoxPredictor_1/strided_slice_1/stack_2"
  op: "Const"
  attr {
    key: "dtype"
    value {
      type: DT_INT32
    }
  }
  attr {
    key: "value"
    value {
      tensor {
        dtype: DT_INT32
        tensor_shape {
          dim {
            size: 1
          }
        }
        int_val: 1
      }
    }
  }
}
node {
  name: "WeightSharedConvolutionalBoxPredictor_1/strided_slice_1/stack_1"
  op: "Const"
  attr {
    key: "dtype"
    value {
      type: DT_INT32
    }
  }
  attr {
    key: "value"
    value {
      tensor {
        dtype: DT_INT32
        tensor_shape {
          dim {
            size: 1
          }
        }
        int_val: 1
      }
    }
  }
}
node {
  name: "WeightSharedConvolutionalBoxPredictor_1/strided_slice_1/stack"
  op: "Const"
  attr {
    key: "dtype"
    value {
      type: DT_INT32
    }
  }
  attr {
    key: "value"
    value {
      tensor {
        dtype: DT_INT32
        tensor_shape {
          dim {
            size: 1
          }
        }
        int_val: 0
      }
    }
  }
}
node {
  name: "WeightSharedConvolutionalBoxPredictor/ClassPredictionTower/conv2d_3/BatchNorm/feature_1/moving_variance"
  op: "Const"
  attr {
    key: "dtype"
    value {
      type: DT_FLOAT
    }
  }
  attr {
    key: "value"
    value {
      tensor {
        dtype: DT_FLOAT
        tensor_shape {
          dim {
            size: 256
          }
        }
      }
    }
  }
}
node {
  name: "WeightSharedConvolutionalBoxPredictor/ClassPredictionTower/conv2d_3/BatchNorm/feature_1/moving_variance/read"
  op: "Identity"
  input: "WeightSharedConvolutionalBoxPredictor/ClassPredictionTower/conv2d_3/BatchNorm/feature_1/moving_variance"
  attr {
    key: "T"
    value {
      type: DT_FLOAT
    }
  }
  attr {
    key: "_class"
    value {
      list {
        s: "loc:@WeightSharedConvolutionalBoxPredictor/ClassPredictionTower/conv2d_3/BatchNorm/feature_1/moving_variance"
      }
    }
  }
}
node {
  name: "WeightSharedConvolutionalBoxPredictor/ClassPredictionTower/conv2d_3/BatchNorm/feature_1/moving_mean"
  op: "Const"
  attr {
    key: "dtype"
    value {
      type: DT_FLOAT
    }
  }
  attr {
    key: "value"
    value {
      tensor {
        dtype: DT_FLOAT
        tensor_shape {
          dim {
            size: 256
          }
        }
      }
    }
  }
}
node {
  name: "WeightSharedConvolutionalBoxPredictor/ClassPredictionTower/conv2d_3/BatchNorm/feature_1/moving_mean/read"
  op: "Identity"
  input: "WeightSharedConvolutionalBoxPredictor/ClassPredictionTower/conv2d_3/BatchNorm/feature_1/moving_mean"
  attr {
    key: "T"
    value {
      type: DT_FLOAT
    }
  }
  attr {
    key: "_class"
    value {
      list {
        s: "loc:@WeightSharedConvolutionalBoxPredictor/ClassPredictionTower/conv2d_3/BatchNorm/feature_1/moving_mean"
      }
    }
  }
}
node {
  name: "WeightSharedConvolutionalBoxPredictor/ClassPredictionTower/conv2d_3/BatchNorm/feature_1/gamma"
  op: "Const"
  attr {
    key: "dtype"
    value {
      type: DT_FLOAT
    }
  }
  attr {
    key: "value"
    value {
      tensor {
        dtype: DT_FLOAT
        tensor_shape {
          dim {
            size: 256
          }
        }
      }
    }
  }
}
node {
  name: "WeightSharedConvolutionalBoxPredictor/ClassPredictionTower/conv2d_3/BatchNorm/feature_1/gamma/read"
  op: "Identity"
  input: "WeightSharedConvolutionalBoxPredictor/ClassPredictionTower/conv2d_3/BatchNorm/feature_1/gamma"
  attr {
    key: "T"
    value {
      type: DT_FLOAT
    }
  }
  attr {
    key: "_class"
    value {
      list {
        s: "loc:@WeightSharedConvolutionalBoxPredictor/ClassPredictionTower/conv2d_3/BatchNorm/feature_1/gamma"
      }
    }
  }
}
node {
  name: "WeightSharedConvolutionalBoxPredictor/ClassPredictionTower/conv2d_3/BatchNorm/feature_1/beta"
  op: "Const"
  attr {
    key: "dtype"
    value {
      type: DT_FLOAT
    }
  }
  attr {
    key: "value"
    value {
      tensor {
        dtype: DT_FLOAT
        tensor_shape {
          dim {
            size: 256
          }
        }
      }
    }
  }
}
node {
  name: "WeightSharedConvolutionalBoxPredictor/ClassPredictionTower/conv2d_3/BatchNorm/feature_1/beta/read"
  op: "Identity"
  input: "WeightSharedConvolutionalBoxPredictor/ClassPredictionTower/conv2d_3/BatchNorm/feature_1/beta"
  attr {
    key: "T"
    value {
      type: DT_FLOAT
    }
  }
  attr {
    key: "_class"
    value {
      list {
        s: "loc:@WeightSharedConvolutionalBoxPredictor/ClassPredictionTower/conv2d_3/BatchNorm/feature_1/beta"
      }
    }
  }
}
node {
  name: "WeightSharedConvolutionalBoxPredictor/ClassPredictionTower/conv2d_2/BatchNorm/feature_1/moving_variance"
  op: "Const"
  attr {
    key: "dtype"
    value {
      type: DT_FLOAT
    }
  }
  attr {
    key: "value"
    value {
      tensor {
        dtype: DT_FLOAT
        tensor_shape {
          dim {
            size: 256
          }
        }
      }
    }
  }
}
node {
  name: "WeightSharedConvolutionalBoxPredictor/ClassPredictionTower/conv2d_2/BatchNorm/feature_1/moving_variance/read"
  op: "Identity"
  input: "WeightSharedConvolutionalBoxPredictor/ClassPredictionTower/conv2d_2/BatchNorm/feature_1/moving_variance"
  attr {
    key: "T"
    value {
      type: DT_FLOAT
    }
  }
  attr {
    key: "_class"
    value {
      list {
        s: "loc:@WeightSharedConvolutionalBoxPredictor/ClassPredictionTower/conv2d_2/BatchNorm/feature_1/moving_variance"
      }
    }
  }
}
node {
  name: "WeightSharedConvolutionalBoxPredictor/ClassPredictionTower/conv2d_2/BatchNorm/feature_1/moving_mean"
  op: "Const"
  attr {
    key: "dtype"
    value {
      type: DT_FLOAT
    }
  }
  attr {
    key: "value"
    value {
      tensor {
        dtype: DT_FLOAT
        tensor_shape {
          dim {
            size: 256
          }
        }
      }
    }
  }
}
node {
  name: "WeightSharedConvolutionalBoxPredictor/ClassPredictionTower/conv2d_2/BatchNorm/feature_1/moving_mean/read"
  op: "Identity"
  input: "WeightSharedConvolutionalBoxPredictor/ClassPredictionTower/conv2d_2/BatchNorm/feature_1/moving_mean"
  attr {
    key: "T"
    value {
      type: DT_FLOAT
    }
  }
  attr {
    key: "_class"
    value {
      list {
        s: "loc:@WeightSharedConvolutionalBoxPredictor/ClassPredictionTower/conv2d_2/BatchNorm/feature_1/moving_mean"
      }
    }
  }
}
node {
  name: "WeightSharedConvolutionalBoxPredictor/ClassPredictionTower/conv2d_2/BatchNorm/feature_1/gamma"
  op: "Const"
  attr {
    key: "dtype"
    value {
      type: DT_FLOAT
    }
  }
  attr {
    key: "value"
    value {
      tensor {
        dtype: DT_FLOAT
        tensor_shape {
          dim {
            size: 256
          }
        }
      }
    }
  }
}
node {
  name: "WeightSharedConvolutionalBoxPredictor/ClassPredictionTower/conv2d_2/BatchNorm/feature_1/gamma/read"
  op: "Identity"
  input: "WeightSharedConvolutionalBoxPredictor/ClassPredictionTower/conv2d_2/BatchNorm/feature_1/gamma"
  attr {
    key: "T"
    value {
      type: DT_FLOAT
    }
  }
  attr {
    key: "_class"
    value {
      list {
        s: "loc:@WeightSharedConvolutionalBoxPredictor/ClassPredictionTower/conv2d_2/BatchNorm/feature_1/gamma"
      }
    }
  }
}
node {
  name: "WeightSharedConvolutionalBoxPredictor/ClassPredictionTower/conv2d_2/BatchNorm/feature_1/beta"
  op: "Const"
  attr {
    key: "dtype"
    value {
      type: DT_FLOAT
    }
  }
  attr {
    key: "value"
    value {
      tensor {
        dtype: DT_FLOAT
        tensor_shape {
          dim {
            size: 256
          }
        }
      }
    }
  }
}
node {
  name: "WeightSharedConvolutionalBoxPredictor/ClassPredictionTower/conv2d_2/BatchNorm/feature_1/beta/read"
  op: "Identity"
  input: "WeightSharedConvolutionalBoxPredictor/ClassPredictionTower/conv2d_2/BatchNorm/feature_1/beta"
  attr {
    key: "T"
    value {
      type: DT_FLOAT
    }
  }
  attr {
    key: "_class"
    value {
      list {
        s: "loc:@WeightSharedConvolutionalBoxPredictor/ClassPredictionTower/conv2d_2/BatchNorm/feature_1/beta"
      }
    }
  }
}
node {
  name: "WeightSharedConvolutionalBoxPredictor/ClassPredictionTower/conv2d_1/BatchNorm/feature_1/moving_variance"
  op: "Const"
  attr {
    key: "dtype"
    value {
      type: DT_FLOAT
    }
  }
  attr {
    key: "value"
    value {
      tensor {
        dtype: DT_FLOAT
        tensor_shape {
          dim {
            size: 256
          }
        }
      }
    }
  }
}
node {
  name: "WeightSharedConvolutionalBoxPredictor/ClassPredictionTower/conv2d_1/BatchNorm/feature_1/moving_variance/read"
  op: "Identity"
  input: "WeightSharedConvolutionalBoxPredictor/ClassPredictionTower/conv2d_1/BatchNorm/feature_1/moving_variance"
  attr {
    key: "T"
    value {
      type: DT_FLOAT
    }
  }
  attr {
    key: "_class"
    value {
      list {
        s: "loc:@WeightSharedConvolutionalBoxPredictor/ClassPredictionTower/conv2d_1/BatchNorm/feature_1/moving_variance"
      }
    }
  }
}
node {
  name: "WeightSharedConvolutionalBoxPredictor/ClassPredictionTower/conv2d_1/BatchNorm/feature_1/moving_mean"
  op: "Const"
  attr {
    key: "dtype"
    value {
      type: DT_FLOAT
    }
  }
  attr {
    key: "value"
    value {
      tensor {
        dtype: DT_FLOAT
        tensor_shape {
          dim {
            size: 256
          }
        }
      }
    }
  }
}
node {
  name: "WeightSharedConvolutionalBoxPredictor/ClassPredictionTower/conv2d_1/BatchNorm/feature_1/moving_mean/read"
  op: "Identity"
  input: "WeightSharedConvolutionalBoxPredictor/ClassPredictionTower/conv2d_1/BatchNorm/feature_1/moving_mean"
  attr {
    key: "T"
    value {
      type: DT_FLOAT
    }
  }
  attr {
    key: "_class"
    value {
      list {
        s: "loc:@WeightSharedConvolutionalBoxPredictor/ClassPredictionTower/conv2d_1/BatchNorm/feature_1/moving_mean"
      }
    }
  }
}
node {
  name: "WeightSharedConvolutionalBoxPredictor/ClassPredictionTower/conv2d_1/BatchNorm/feature_1/gamma"
  op: "Const"
  attr {
    key: "dtype"
    value {
      type: DT_FLOAT
    }
  }
  attr {
    key: "value"
    value {
      tensor {
        dtype: DT_FLOAT
        tensor_shape {
          dim {
            size: 256
          }
        }
      }
    }
  }
}
node {
  name: "WeightSharedConvolutionalBoxPredictor/ClassPredictionTower/conv2d_1/BatchNorm/feature_1/gamma/read"
  op: "Identity"
  input: "WeightSharedConvolutionalBoxPredictor/ClassPredictionTower/conv2d_1/BatchNorm/feature_1/gamma"
  attr {
    key: "T"
    value {
      type: DT_FLOAT
    }
  }
  attr {
    key: "_class"
    value {
      list {
        s: "loc:@WeightSharedConvolutionalBoxPredictor/ClassPredictionTower/conv2d_1/BatchNorm/feature_1/gamma"
      }
    }
  }
}
node {
  name: "WeightSharedConvolutionalBoxPredictor/ClassPredictionTower/conv2d_1/BatchNorm/feature_1/beta"
  op: "Const"
  attr {
    key: "dtype"
    value {
      type: DT_FLOAT
    }
  }
  attr {
    key: "value"
    value {
      tensor {
        dtype: DT_FLOAT
        tensor_shape {
          dim {
            size: 256
          }
        }
      }
    }
  }
}
node {
  name: "WeightSharedConvolutionalBoxPredictor/ClassPredictionTower/conv2d_1/BatchNorm/feature_1/beta/read"
  op: "Identity"
  input: "WeightSharedConvolutionalBoxPredictor/ClassPredictionTower/conv2d_1/BatchNorm/feature_1/beta"
  attr {
    key: "T"
    value {
      type: DT_FLOAT
    }
  }
  attr {
    key: "_class"
    value {
      list {
        s: "loc:@WeightSharedConvolutionalBoxPredictor/ClassPredictionTower/conv2d_1/BatchNorm/feature_1/beta"
      }
    }
  }
}
node {
  name: "WeightSharedConvolutionalBoxPredictor/ClassPredictionTower/conv2d_0/BatchNorm/feature_1/moving_variance"
  op: "Const"
  attr {
    key: "dtype"
    value {
      type: DT_FLOAT
    }
  }
  attr {
    key: "value"
    value {
      tensor {
        dtype: DT_FLOAT
        tensor_shape {
          dim {
            size: 256
          }
        }
      }
    }
  }
}
node {
  name: "WeightSharedConvolutionalBoxPredictor/ClassPredictionTower/conv2d_0/BatchNorm/feature_1/moving_variance/read"
  op: "Identity"
  input: "WeightSharedConvolutionalBoxPredictor/ClassPredictionTower/conv2d_0/BatchNorm/feature_1/moving_variance"
  attr {
    key: "T"
    value {
      type: DT_FLOAT
    }
  }
  attr {
    key: "_class"
    value {
      list {
        s: "loc:@WeightSharedConvolutionalBoxPredictor/ClassPredictionTower/conv2d_0/BatchNorm/feature_1/moving_variance"
      }
    }
  }
}
node {
  name: "WeightSharedConvolutionalBoxPredictor/ClassPredictionTower/conv2d_0/BatchNorm/feature_1/moving_mean"
  op: "Const"
  attr {
    key: "dtype"
    value {
      type: DT_FLOAT
    }
  }
  attr {
    key: "value"
    value {
      tensor {
        dtype: DT_FLOAT
        tensor_shape {
          dim {
            size: 256
          }
        }
      }
    }
  }
}
node {
  name: "WeightSharedConvolutionalBoxPredictor/ClassPredictionTower/conv2d_0/BatchNorm/feature_1/moving_mean/read"
  op: "Identity"
  input: "WeightSharedConvolutionalBoxPredictor/ClassPredictionTower/conv2d_0/BatchNorm/feature_1/moving_mean"
  attr {
    key: "T"
    value {
      type: DT_FLOAT
    }
  }
  attr {
    key: "_class"
    value {
      list {
        s: "loc:@WeightSharedConvolutionalBoxPredictor/ClassPredictionTower/conv2d_0/BatchNorm/feature_1/moving_mean"
      }
    }
  }
}
node {
  name: "WeightSharedConvolutionalBoxPredictor/ClassPredictionTower/conv2d_0/BatchNorm/feature_1/gamma"
  op: "Const"
  attr {
    key: "dtype"
    value {
      type: DT_FLOAT
    }
  }
  attr {
    key: "value"
    value {
      tensor {
        dtype: DT_FLOAT
        tensor_shape {
          dim {
            size: 256
          }
        }
      }
    }
  }
}
node {
  name: "WeightSharedConvolutionalBoxPredictor/ClassPredictionTower/conv2d_0/BatchNorm/feature_1/gamma/read"
  op: "Identity"
  input: "WeightSharedConvolutionalBoxPredictor/ClassPredictionTower/conv2d_0/BatchNorm/feature_1/gamma"
  attr {
    key: "T"
    value {
      type: DT_FLOAT
    }
  }
  attr {
    key: "_class"
    value {
      list {
        s: "loc:@WeightSharedConvolutionalBoxPredictor/ClassPredictionTower/conv2d_0/BatchNorm/feature_1/gamma"
      }
    }
  }
}
node {
  name: "WeightSharedConvolutionalBoxPredictor/ClassPredictionTower/conv2d_0/BatchNorm/feature_1/beta"
  op: "Const"
  attr {
    key: "dtype"
    value {
      type: DT_FLOAT
    }
  }
  attr {
    key: "value"
    value {
      tensor {
        dtype: DT_FLOAT
        tensor_shape {
          dim {
            size: 256
          }
        }
      }
    }
  }
}
node {
  name: "WeightSharedConvolutionalBoxPredictor/ClassPredictionTower/conv2d_0/BatchNorm/feature_1/beta/read"
  op: "Identity"
  input: "WeightSharedConvolutionalBoxPredictor/ClassPredictionTower/conv2d_0/BatchNorm/feature_1/beta"
  attr {
    key: "T"
    value {
      type: DT_FLOAT
    }
  }
  attr {
    key: "_class"
    value {
      list {
        s: "loc:@WeightSharedConvolutionalBoxPredictor/ClassPredictionTower/conv2d_0/BatchNorm/feature_1/beta"
      }
    }
  }
}
node {
  name: "WeightSharedConvolutionalBoxPredictor_1/Reshape/shape/2"
  op: "Const"
  attr {
    key: "dtype"
    value {
      type: DT_INT32
    }
  }
  attr {
    key: "value"
    value {
      tensor {
        dtype: DT_INT32
        tensor_shape {
        }
        int_val: 4
      }
    }
  }
}
node {
  name: "WeightSharedConvolutionalBoxPredictor_1/Reshape/shape/1"
  op: "Const"
  attr {
    key: "dtype"
    value {
      type: DT_INT32
    }
  }
  attr {
    key: "value"
    value {
      tensor {
        dtype: DT_INT32
        tensor_shape {
        }
        int_val: -1
      }
    }
  }
}
node {
  name: "WeightSharedConvolutionalBoxPredictor_1/strided_slice/stack_2"
  op: "Const"
  attr {
    key: "dtype"
    value {
      type: DT_INT32
    }
  }
  attr {
    key: "value"
    value {
      tensor {
        dtype: DT_INT32
        tensor_shape {
          dim {
            size: 1
          }
        }
        int_val: 1
      }
    }
  }
}
node {
  name: "WeightSharedConvolutionalBoxPredictor_1/strided_slice/stack_1"
  op: "Const"
  attr {
    key: "dtype"
    value {
      type: DT_INT32
    }
  }
  attr {
    key: "value"
    value {
      tensor {
        dtype: DT_INT32
        tensor_shape {
          dim {
            size: 1
          }
        }
        int_val: 1
      }
    }
  }
}
node {
  name: "WeightSharedConvolutionalBoxPredictor_1/strided_slice/stack"
  op: "Const"
  attr {
    key: "dtype"
    value {
      type: DT_INT32
    }
  }
  attr {
    key: "value"
    value {
      tensor {
        dtype: DT_INT32
        tensor_shape {
          dim {
            size: 1
          }
        }
        int_val: 0
      }
    }
  }
}
node {
  name: "WeightSharedConvolutionalBoxPredictor/BoxPredictionTower/conv2d_3/BatchNorm/feature_1/moving_variance"
  op: "Const"
  attr {
    key: "dtype"
    value {
      type: DT_FLOAT
    }
  }
  attr {
    key: "value"
    value {
      tensor {
        dtype: DT_FLOAT
        tensor_shape {
          dim {
            size: 256
          }
        }
      }
    }
  }
}
node {
  name: "WeightSharedConvolutionalBoxPredictor/BoxPredictionTower/conv2d_3/BatchNorm/feature_1/moving_variance/read"
  op: "Identity"
  input: "WeightSharedConvolutionalBoxPredictor/BoxPredictionTower/conv2d_3/BatchNorm/feature_1/moving_variance"
  attr {
    key: "T"
    value {
      type: DT_FLOAT
    }
  }
  attr {
    key: "_class"
    value {
      list {
        s: "loc:@WeightSharedConvolutionalBoxPredictor/BoxPredictionTower/conv2d_3/BatchNorm/feature_1/moving_variance"
      }
    }
  }
}
node {
  name: "WeightSharedConvolutionalBoxPredictor/BoxPredictionTower/conv2d_3/BatchNorm/feature_1/moving_mean"
  op: "Const"
  attr {
    key: "dtype"
    value {
      type: DT_FLOAT
    }
  }
  attr {
    key: "value"
    value {
      tensor {
        dtype: DT_FLOAT
        tensor_shape {
          dim {
            size: 256
          }
        }
      }
    }
  }
}
node {
  name: "WeightSharedConvolutionalBoxPredictor/BoxPredictionTower/conv2d_3/BatchNorm/feature_1/moving_mean/read"
  op: "Identity"
  input: "WeightSharedConvolutionalBoxPredictor/BoxPredictionTower/conv2d_3/BatchNorm/feature_1/moving_mean"
  attr {
    key: "T"
    value {
…
  name: "Postprocessor/BatchMultiClassNonMaxSuppression/map/while/MultiClassNonMaxSuppression/ClipToWindow/Minimum_3"
  op: "Minimum"
  input: "Postprocessor/BatchMultiClassNonMaxSuppression/map/while/MultiClassNonMaxSuppression/ClipToWindow/split:3"
  input: "Postprocessor/BatchMultiClassNonMaxSuppression/map/while/MultiClassNonMaxSuppression/ClipToWindow/unstack:3"
  attr {
    key: "T"
    value {
      type: DT_FLOAT
    }
  }
}
node {
  name: "Postprocessor/BatchMultiClassNonMaxSuppression/map/while/MultiClassNonMaxSuppression/ClipToWindow/Maximum_3"
  op: "Maximum"
  input: "Postprocessor/BatchMultiClassNonMaxSuppression/map/while/MultiClassNonMaxSuppression/ClipToWindow/Minimum_3"
  input: "Postprocessor/BatchMultiClassNonMaxSuppression/map/while/MultiClassNonMaxSuppression/ClipToWindow/unstack:1"
  attr {
    key: "T"
    value {
      type: DT_FLOAT
    }
  }
}
node {
  name: "Postprocessor/BatchMultiClassNonMaxSuppression/map/while/MultiClassNonMaxSuppression/ClipToWindow/Minimum_2"
  op: "Minimum"
  input: "Postprocessor/BatchMultiClassNonMaxSuppression/map/while/MultiClassNonMaxSuppression/ClipToWindow/split:1"
  input: "Postprocessor/BatchMultiClassNonMaxSuppression/map/while/MultiClassNonMaxSuppression/ClipToWindow/unstack:3"
  attr {
    key: "T"
    value {
      type: DT_FLOAT
    }
  }
}
node {
  name: "Postprocessor/BatchMultiClassNonMaxSuppression/map/while/MultiClassNonMaxSuppression/ClipToWindow/Maximum_2"
  op: "Maximum"
  input: "Postprocessor/BatchMultiClassNonMaxSuppression/map/while/MultiClassNonMaxSuppression/ClipToWindow/Minimum_2"
  input: "Postprocessor/BatchMultiClassNonMaxSuppression/map/while/MultiClassNonMaxSuppression/ClipToWindow/unstack:1"
  attr {
    key: "T"
    value {
      type: DT_FLOAT
    }
  }
}
node {
  name: "Postprocessor/BatchMultiClassNonMaxSuppression/map/while/MultiClassNonMaxSuppression/ClipToWindow/Minimum_1"
  op: "Minimum"
  input: "Postprocessor/BatchMultiClassNonMaxSuppression/map/while/MultiClassNonMaxSuppression/ClipToWindow/split:2"
  input: "Postprocessor/BatchMultiClassNonMaxSuppression/map/while/MultiClassNonMaxSuppression/ClipToWindow/unstack:2"
  attr {
    key: "T"
    value {
      type: DT_FLOAT
    }
  }
}
node {
  name: "Postprocessor/BatchMultiClassNonMaxSuppression/map/while/MultiClassNonMaxSuppression/ClipToWindow/Maximum_1"
  op: "Maximum"
  input: "Postprocessor/BatchMultiClassNonMaxSuppression/map/while/MultiClassNonMaxSuppression/ClipToWindow/Minimum_1"
  input: "Postprocessor/BatchMultiClassNonMaxSuppression/map/while/MultiClassNonMaxSuppression/ClipToWindow/unstack"
  attr {
    key: "T"
    value {
      type: DT_FLOAT
    }
  }
}
node {
  name: "Postprocessor/BatchMultiClassNonMaxSuppression/map/while/MultiClassNonMaxSuppression/ClipToWindow/Minimum"
  op: "Minimum"
  input: "Postprocessor/BatchMultiClassNonMaxSuppression/map/while/MultiClassNonMaxSuppression/ClipToWindow/split"
  input: "Postprocessor/BatchMultiClassNonMaxSuppression/map/while/MultiClassNonMaxSuppression/ClipToWindow/unstack:2"
  attr {
    key: "T"
    value {
      type: DT_FLOAT
    }
  }
}
node {
  name: "Postprocessor/BatchMultiClassNonMaxSuppression/map/while/MultiClassNonMaxSuppression/ClipToWindow/Maximum"
  op: "Maximum"
  input: "Postprocessor/BatchMultiClassNonMaxSuppression/map/while/MultiClassNonMaxSuppression/ClipToWindow/Minimum"
  input: "Postprocessor/BatchMultiClassNonMaxSuppression/map/while/MultiClassNonMaxSuppression/ClipToWindow/unstack"
  attr {
    key: "T"
    value {
      type: DT_FLOAT
    }
  }
}
node {
  name: "Postprocessor/BatchMultiClassNonMaxSuppression/map/while/MultiClassNonMaxSuppression/ClipToWindow/concat"
  op: "ConcatV2"
  input: "Postprocessor/BatchMultiClassNonMaxSuppression/map/while/MultiClassNonMaxSuppression/ClipToWindow/Maximum"
  input: "Postprocessor/BatchMultiClassNonMaxSuppression/map/while/MultiClassNonMaxSuppression/ClipToWindow/Maximum_2"
  input: "Postprocessor/BatchMultiClassNonMaxSuppression/map/while/MultiClassNonMaxSuppression/ClipToWindow/Maximum_1"
  input: "Postprocessor/BatchMultiClassNonMaxSuppression/map/while/MultiClassNonMaxSuppression/ClipToWindow/Maximum_3"
  input: "Postprocessor/BatchMultiClassNonMaxSuppression/map/while/MultiClassNonMaxSuppression/ClipToWindow/concat/axis"
  attr {
    key: "N"
    value {
      i: 4
    }
  }
  attr {
    key: "T"
    value {
      type: DT_FLOAT
    }
  }
  attr {
    key: "Tidx"
    value {
      type: DT_INT32
    }
  }
}
node {
  name: "Postprocessor/BatchMultiClassNonMaxSuppression/map/while/MultiClassNonMaxSuppression/ClipToWindow/Area/split"
  op: "Split"
  input: "Postprocessor/BatchMultiClassNonMaxSuppression/map/while/MultiClassNonMaxSuppression/ClipToWindow/Area/split/split_dim"
  input: "Postprocessor/BatchMultiClassNonMaxSuppression/map/while/MultiClassNonMaxSuppression/ClipToWindow/concat"
  attr {
    key: "T"
    value {
      type: DT_FLOAT
    }
  }
  attr {
    key: "num_split"
    value {
      i: 4
    }
  }
}
node {
  name: "Postprocessor/BatchMultiClassNonMaxSuppression/map/while/MultiClassNonMaxSuppression/ClipToWindow/Area/sub_1"
  op: "Sub"
  input: "Postprocessor/BatchMultiClassNonMaxSuppression/map/while/MultiClassNonMaxSuppression/ClipToWindow/Area/split:3"
  input: "Postprocessor/BatchMultiClassNonMaxSuppression/map/while/MultiClassNonMaxSuppression/ClipToWindow/Area/split:1"
  attr {
    key: "T"
    value {
      type: DT_FLOAT
    }
  }
}
node {
  name: "Postprocessor/BatchMultiClassNonMaxSuppression/map/while/MultiClassNonMaxSuppression/ClipToWindow/Area/sub"
  op: "Sub"
  input: "Postprocessor/BatchMultiClassNonMaxSuppression/map/while/MultiClassNonMaxSuppression/ClipToWindow/Area/split:2"
  input: "Postprocessor/BatchMultiClassNonMaxSuppression/map/while/MultiClassNonMaxSuppression/ClipToWindow/Area/split"
  attr {
    key: "T"
    value {
      type: DT_FLOAT
    }
  }
}
node {
  name: "Postprocessor/BatchMultiClassNonMaxSuppression/map/while/MultiClassNonMaxSuppression/ClipToWindow/Area/mul"
  op: "Mul"
  input: "Postprocessor/BatchMultiClassNonMaxSuppression/map/while/MultiClassNonMaxSuppression/ClipToWindow/Area/sub"
  input: "Postprocessor/BatchMultiClassNonMaxSuppression/map/while/MultiClassNonMaxSuppression/ClipToWindow/Area/sub_1"
  attr {
    key: "T"
    value {
      type: DT_FLOAT
    }
  }
}
node {
  name: "Postprocessor/BatchMultiClassNonMaxSuppression/map/while/MultiClassNonMaxSuppression/ClipToWindow/Area/Squeeze"
  op: "Squeeze"
  input: "Postprocessor/BatchMultiClassNonMaxSuppression/map/while/MultiClassNonMaxSuppression/ClipToWindow/Area/mul"
  attr {
    key: "T"
    value {
      type: DT_FLOAT
    }
  }
  attr {
    key: "squeeze_dims"
    value {
      list {
        i: 1
      }
    }
  }
}
node {
  name: "Postprocessor/BatchMultiClassNonMaxSuppression/map/while/MultiClassNonMaxSuppression/ClipToWindow/Greater"
  op: "Greater"
  input: "Postprocessor/BatchMultiClassNonMaxSuppression/map/while/MultiClassNonMaxSuppression/ClipToWindow/Area/Squeeze"
  input: "Postprocessor/BatchMultiClassNonMaxSuppression/map/while/MultiClassNonMaxSuppression/ClipToWindow/Greater/y"
  attr {
    key: "T"
    value {
      type: DT_FLOAT
    }
  }
}
node {
  name: "Postprocessor/BatchMultiClassNonMaxSuppression/map/while/MultiClassNonMaxSuppression/ClipToWindow/Where"
  op: "Where"
  input: "Postprocessor/BatchMultiClassNonMaxSuppression/map/while/MultiClassNonMaxSuppression/ClipToWindow/Greater"
  attr {
    key: "T"
    value {
      type: DT_BOOL
    }
  }
}
node {
  name: "Postprocessor/BatchMultiClassNonMaxSuppression/map/while/MultiClassNonMaxSuppression/ClipToWindow/Reshape"
  op: "Reshape"
  input: "Postprocessor/BatchMultiClassNonMaxSuppression/map/while/MultiClassNonMaxSuppression/ClipToWindow/Where"
  input: "Postprocessor/BatchMultiClassNonMaxSuppression/map/while/MultiClassNonMaxSuppression/ClipToWindow/Reshape/shape"
  attr {
    key: "T"
    value {
      type: DT_INT64
    }
  }
  attr {
    key: "Tshape"
    value {
      type: DT_INT32
    }
  }
}
node {
  name: "Postprocessor/BatchMultiClassNonMaxSuppression/map/while/MultiClassNonMaxSuppression/ClipToWindow/Cast"
  op: "Cast"
  input: "Postprocessor/BatchMultiClassNonMaxSuppression/map/while/MultiClassNonMaxSuppression/ClipToWindow/Reshape"
  attr {
    key: "DstT"
    value {
      type: DT_INT32
    }
  }
  attr {
    key: "SrcT"
    value {
      type: DT_INT64
    }
  }
}
node {
  name: "Postprocessor/BatchMultiClassNonMaxSuppression/map/while/MultiClassNonMaxSuppression/ClipToWindow/Gather/GatherV2_3"
  op: "GatherV2"
  input: "Postprocessor/BatchMultiClassNonMaxSuppression/map/while/MultiClassNonMaxSuppression/SortByField/Gather/GatherV2_3"
  input: "Postprocessor/BatchMultiClassNonMaxSuppression/map/while/MultiClassNonMaxSuppression/ClipToWindow/Cast"
  input: "Postprocessor/BatchMultiClassNonMaxSuppression/map/while/MultiClassNonMaxSuppression/ClipToWindow/Gather/GatherV2_3/axis"
  attr {
    key: "Taxis"
    value {
      type: DT_INT32
    }
  }
  attr {
    key: "Tindices"
    value {
      type: DT_INT32
    }
  }
  attr {
    key: "Tparams"
    value {
      type: DT_FLOAT
    }
  }
}
node {
  name: "Postprocessor/BatchMultiClassNonMaxSuppression/map/while/MultiClassNonMaxSuppression/ClipToWindow/Gather/GatherV2_1"
  op: "GatherV2"
  input: "Postprocessor/BatchMultiClassNonMaxSuppression/map/while/MultiClassNonMaxSuppression/SortByField/Gather/GatherV2_1"
  input: "Postprocessor/BatchMultiClassNonMaxSuppression/map/while/MultiClassNonMaxSuppression/ClipToWindow/Cast"
  input: "Postprocessor/BatchMultiClassNonMaxSuppression/map/while/MultiClassNonMaxSuppression/ClipToWindow/Gather/GatherV2_1/axis"
  attr {
    key: "Taxis"
    value {
      type: DT_INT32
    }
  }
  attr {
    key: "Tindices"
    value {
      type: DT_INT32
    }
  }
  attr {
    key: "Tparams"
    value {
      type: DT_FLOAT
    }
  }
}
node {
  name: "Postprocessor/BatchMultiClassNonMaxSuppression/map/while/MultiClassNonMaxSuppression/ClipToWindow/Gather/GatherV2"
  op: "GatherV2"
  input: "Postprocessor/BatchMultiClassNonMaxSuppression/map/while/MultiClassNonMaxSuppression/ClipToWindow/concat"
  input: "Postprocessor/BatchMultiClassNonMaxSuppression/map/while/MultiClassNonMaxSuppression/ClipToWindow/Cast"
  input: "Postprocessor/BatchMultiClassNonMaxSuppression/map/while/MultiClassNonMaxSuppression/ClipToWindow/Gather/GatherV2/axis"
  attr {
    key: "Taxis"
    value {
      type: DT_INT32
    }
  }
  attr {
    key: "Tindices"
    value {
      type: DT_INT32
    }
  }
  attr {
    key: "Tparams"
    value {
      type: DT_FLOAT
    }
  }
}
node {
  name: "Postprocessor/BatchMultiClassNonMaxSuppression/map/while/MultiClassNonMaxSuppression/Shape_2"
  op: "Shape"
  input: "Postprocessor/BatchMultiClassNonMaxSuppression/map/while/MultiClassNonMaxSuppression/ClipToWindow/Gather/GatherV2"
  attr {
    key: "T"
    value {
      type: DT_FLOAT
    }
  }
  attr {
    key: "out_type"
    value {
      type: DT_INT32
    }
  }
}
node {
  name: "Postprocessor/BatchMultiClassNonMaxSuppression/map/while/MultiClassNonMaxSuppression/strided_slice_2"
  op: "StridedSlice"
  input: "Postprocessor/BatchMultiClassNonMaxSuppression/map/while/MultiClassNonMaxSuppression/Shape_2"
  input: "Postprocessor/BatchMultiClassNonMaxSuppression/map/while/MultiClassNonMaxSuppression/strided_slice_2/stack"
  input: "Postprocessor/BatchMultiClassNonMaxSuppression/map/while/MultiClassNonMaxSuppression/strided_slice_2/stack_1"
  input: "Postprocessor/BatchMultiClassNonMaxSuppression/map/while/MultiClassNonMaxSuppression/strided_slice_2/stack_2"
  attr {
    key: "Index"
    value {
      type: DT_INT32
    }
  }
  attr {
    key: "T"
    value {
      type: DT_INT32
    }
  }
  attr {
    key: "begin_mask"
    value {
      i: 0
    }
  }
  attr {
    key: "ellipsis_mask"
    value {
      i: 0
    }
  }
  attr {
    key: "end_mask"
    value {
      i: 0
    }
  }
  attr {
    key: "new_axis_mask"
    value {
      i: 0
    }
  }
  attr {
    key: "shrink_axis_mask"
    value {
      i: 1
    }
  }
}
node {
  name: "Postprocessor/BatchMultiClassNonMaxSuppression/map/while/MultiClassNonMaxSuppression/Minimum_1"
  op: "Minimum"
  input: "Postprocessor/BatchMultiClassNonMaxSuppression/map/while/MultiClassNonMaxSuppression/Minimum_1/x"
  input: "Postprocessor/BatchMultiClassNonMaxSuppression/map/while/MultiClassNonMaxSuppression/strided_slice_2"
  attr {
    key: "T"
    value {
      type: DT_INT32
    }
  }
}
node {
  name: "Postprocessor/BatchMultiClassNonMaxSuppression/map/while/MultiClassNonMaxSuppression/range"
  op: "Range"
  input: "Postprocessor/BatchMultiClassNonMaxSuppression/map/while/MultiClassNonMaxSuppression/range/start"
  input: "Postprocessor/BatchMultiClassNonMaxSuppression/map/while/MultiClassNonMaxSuppression/Minimum_1"
  input: "Postprocessor/BatchMultiClassNonMaxSuppression/map/while/MultiClassNonMaxSuppression/range/delta"
  attr {
    key: "Tidx"
    value {
      type: DT_INT32
    }
  }
}
node {
  name: "Postprocessor/BatchMultiClassNonMaxSuppression/map/while/MultiClassNonMaxSuppression/Gather_1/GatherV2_3"
  op: "GatherV2"
  input: "Postprocessor/BatchMultiClassNonMaxSuppression/map/while/MultiClassNonMaxSuppression/ClipToWindow/Gather/GatherV2_3"
  input: "Postprocessor/BatchMultiClassNonMaxSuppression/map/while/MultiClassNonMaxSuppression/range"
  input: "Postprocessor/BatchMultiClassNonMaxSuppression/map/while/MultiClassNonMaxSuppression/Gather_1/GatherV2_3/axis"
  attr {
    key: "Taxis"
    value {
      type: DT_INT32
    }
  }
  attr {
    key: "Tindices"
    value {
      type: DT_INT32
    }
  }
  attr {
    key: "Tparams"
    value {
      type: DT_FLOAT
    }
  }
}
node {
  name: "Postprocessor/BatchMultiClassNonMaxSuppression/map/while/PadOrClipBoxList/Shape_6"
  op: "Shape"
  input: "Postprocessor/BatchMultiClassNonMaxSuppression/map/while/MultiClassNonMaxSuppression/Gather_1/GatherV2_3"
  attr {
    key: "T"
    value {
      type: DT_FLOAT
    }
  }
  attr {
    key: "out_type"
    value {
      type: DT_INT32
    }
  }
}
node {
  name: "Postprocessor/BatchMultiClassNonMaxSuppression/map/while/PadOrClipBoxList/strided_slice_12"
  op: "StridedSlice"
  input: "Postprocessor/BatchMultiClassNonMaxSuppression/map/while/PadOrClipBoxList/Shape_6"
  input: "Postprocessor/BatchMultiClassNonMaxSuppression/map/while/PadOrClipBoxList/strided_slice_12/stack"
  input: "Postprocessor/BatchMultiClassNonMaxSuppression/map/while/PadOrClipBoxList/strided_slice_12/stack_1"
  input: "Postprocessor/BatchMultiClassNonMaxSuppression/map/while/PadOrClipBoxList/strided_slice_12/stack_2"
  attr {
    key: "Index"
    value {
      type: DT_INT32
    }
  }
  attr {
    key: "T"
    value {
      type: DT_INT32
    }
  }
  attr {
    key: "begin_mask"
    value {
      i: 0
    }
  }
  attr {
    key: "ellipsis_mask"
    value {
      i: 0
    }
  }
  attr {
    key: "end_mask"
    value {
      i: 0
    }
  }
  attr {
    key: "new_axis_mask"
    value {
      i: 0
    }
  }
  attr {
    key: "shrink_axis_mask"
    value {
      i: 1
    }
  }
}
node {
  name: "Postprocessor/BatchMultiClassNonMaxSuppression/map/while/PadOrClipBoxList/sub_12"
  op: "Sub"
  input: "Postprocessor/BatchMultiClassNonMaxSuppression/map/while/PadOrClipBoxList/strided_slice_12"
  input: "Postprocessor/BatchMultiClassNonMaxSuppression/map/while/PadOrClipBoxList/sub_12/y"
  attr {
    key: "T"
    value {
      type: DT_INT32
    }
  }
}
node {
  name: "Postprocessor/BatchMultiClassNonMaxSuppression/map/while/PadOrClipBoxList/Greater_6"
  op: "Greater"
  input: "Postprocessor/BatchMultiClassNonMaxSuppression/map/while/PadOrClipBoxList/sub_12"
  input: "Postprocessor/BatchMultiClassNonMaxSuppression/map/while/PadOrClipBoxList/Greater_6/y"
  attr {
    key: "T"
    value {
      type: DT_INT32
    }
  }
}
node {
  name: "Postprocessor/BatchMultiClassNonMaxSuppression/map/while/PadOrClipBoxList/Select_6"
  op: "Select"
  input: "Postprocessor/BatchMultiClassNonMaxSuppression/map/while/PadOrClipBoxList/Greater_6"
  input: "Postprocessor/BatchMultiClassNonMaxSuppression/map/while/PadOrClipBoxList/Select_6/t"
  input: "Postprocessor/BatchMultiClassNonMaxSuppression/map/while/PadOrClipBoxList/Select_6/e"
  attr {
    key: "T"
    value {
      type: DT_INT32
    }
  }
}
node {
  name: "Postprocessor/BatchMultiClassNonMaxSuppression/map/while/PadOrClipBoxList/Slice_3/size"
  op: "Pack"
  input: "Postprocessor/BatchMultiClassNonMaxSuppression/map/while/PadOrClipBoxList/Select_6"
  attr {
    key: "N"
    value {
      i: 1
    }
  }
  attr {
    key: "T"
    value {
      type: DT_INT32
    }
  }
  attr {
    key: "axis"
    value {
      i: 0
    }
  }
}
node {
  name: "Postprocessor/BatchMultiClassNonMaxSuppression/map/while/PadOrClipBoxList/Slice_3"
  op: "Slice"
  input: "Postprocessor/BatchMultiClassNonMaxSuppression/map/while/MultiClassNonMaxSuppression/Gather_1/GatherV2_3"
  input: "Postprocessor/BatchMultiClassNonMaxSuppression/map/while/PadOrClipBoxList/zeros_6"
  input: "Postprocessor/BatchMultiClassNonMaxSuppression/map/while/PadOrClipBoxList/Slice_3/size"
  attr {
    key: "Index"
    value {
      type: DT_INT32
    }
  }
  attr {
    key: "T"
    value {
      type: DT_FLOAT
    }
  }
}
node {
  name: "Postprocessor/BatchMultiClassNonMaxSuppression/map/while/PadOrClipBoxList/Shape_7"
  op: "Shape"
  input: "Postprocessor/BatchMultiClassNonMaxSuppression/map/while/PadOrClipBoxList/Slice_3"
  attr {
    key: "T"
    value {
      type: DT_FLOAT
    }
  }
  attr {
    key: "out_type"
    value {
      type: DT_INT32
    }
  }
}
node {
  name: "Postprocessor/BatchMultiClassNonMaxSuppression/map/while/PadOrClipBoxList/strided_slice_13"
  op: "StridedSlice"
  input: "Postprocessor/BatchMultiClassNonMaxSuppression/map/while/PadOrClipBoxList/Shape_7"
  input: "Postprocessor/BatchMultiClassNonMaxSuppression/map/while/PadOrClipBoxList/strided_slice_13/stack"
  input: "Postprocessor/BatchMultiClassNonMaxSuppression/map/while/PadOrClipBoxList/strided_slice_13/stack_1"
  input: "Postprocessor/BatchMultiClassNonMaxSuppression/map/while/PadOrClipBoxList/strided_slice_13/stack_2"
  attr {
    key: "Index"
    value {
      type: DT_INT32
    }
  }
  attr {
    key: "T"
    value {
      type: DT_INT32
    }
  }
  attr {
    key: "begin_mask"
    value {
      i: 0
    }
  }
  attr {
    key: "ellipsis_mask"
    value {
      i: 0
    }
  }
  attr {
    key: "end_mask"
    value {
      i: 0
    }
  }
  attr {
    key: "new_axis_mask"
    value {
      i: 0
    }
  }
  attr {
    key: "shrink_axis_mask"
    value {
      i: 1
    }
  }
}
node {
  name: "Postprocessor/BatchMultiClassNonMaxSuppression/map/while/PadOrClipBoxList/sub_13"
  op: "Sub"
  input: "Postprocessor/BatchMultiClassNonMaxSuppression/map/while/PadOrClipBoxList/sub_13/x"
  input: "Postprocessor/BatchMultiClassNonMaxSuppression/map/while/PadOrClipBoxList/strided_slice_13"
  attr {
    key: "T"
    value {
      type: DT_INT32
    }
  }
}
node {
  name: "Postprocessor/BatchMultiClassNonMaxSuppression/map/while/PadOrClipBoxList/stack_3/values_1"
  op: "Pack"
  input: "Postprocessor/BatchMultiClassNonMaxSuppression/map/while/PadOrClipBoxList/sub_13"
  attr {
    key: "N"
    value {
      i: 1
    }
  }
  attr {
    key: "T"
    value {
      type: DT_INT32
    }
  }
  attr {
    key: "axis"
    value {
      i: 0
    }
  }
}
node {
  name: "Postprocessor/BatchMultiClassNonMaxSuppression/map/while/PadOrClipBoxList/stack_3"
  op: "Pack"
  input: "Postprocessor/BatchMultiClassNonMaxSuppression/map/while/PadOrClipBoxList/zeros_7"
  input: "Postprocessor/BatchMultiClassNonMaxSuppression/map/while/PadOrClipBoxList/stack_3/values_1"
  attr {
    key: "N"
    value {
      i: 2
    }
  }
  attr {
    key: "T"
    value {
      type: DT_INT32
    }
  }
  attr {
    key: "axis"
    value {
      i: 1
    }
  }
}
node {
  name: "Postprocessor/BatchMultiClassNonMaxSuppression/map/while/PadOrClipBoxList/Pad_3"
  op: "Pad"
  input: "Postprocessor/BatchMultiClassNonMaxSuppression/map/while/PadOrClipBoxList/Slice_3"
  input: "Postprocessor/BatchMultiClassNonMaxSuppression/map/while/PadOrClipBoxList/stack_3"
  attr {
    key: "T"
    value {
      type: DT_FLOAT
    }
  }
  attr {
    key: "Tpaddings"
    value {
      type: DT_INT32
    }
  }
}
node {
  name: "Postprocessor/BatchMultiClassNonMaxSuppression/map/while/TensorArrayWrite_1/TensorArrayWriteV3"
  op: "TensorArrayWriteV3"
  input: "Postprocessor/BatchMultiClassNonMaxSuppression/map/while/TensorArrayWrite_1/TensorArrayWriteV3/Enter"
  input: "Postprocessor/BatchMultiClassNonMaxSuppression/map/while/Identity_1"
  input: "Postprocessor/BatchMultiClassNonMaxSuppression/map/while/PadOrClipBoxList/Pad_3"
  input: "Postprocessor/BatchMultiClassNonMaxSuppression/map/while/Identity_3"
  attr {
    key: "T"
    value {
      type: DT_FLOAT
    }
  }
  attr {
    key: "_class"
    value {
      list {
        s: "loc:@Postprocessor/BatchMultiClassNonMaxSuppression/map/while/PadOrClipBoxList/Pad_3"
      }
    }
  }
}
node {
  name: "Postprocessor/BatchMultiClassNonMaxSuppression/map/while/NextIteration_3"
  op: "NextIteration"
  input: "Postprocessor/BatchMultiClassNonMaxSuppression/map/while/TensorArrayWrite_1/TensorArrayWriteV3"
  attr {
    key: "T"
    value {
      type: DT_FLOAT
    }
  }
}
node {
  name: "Postprocessor/BatchMultiClassNonMaxSuppression/map/while/MultiClassNonMaxSuppression/Gather_1/GatherV2_1"
  op: "GatherV2"
  input: "Postprocessor/BatchMultiClassNonMaxSuppression/map/while/MultiClassNonMaxSuppression/ClipToWindow/Gather/GatherV2_1"
  input: "Postprocessor/BatchMultiClassNonMaxSuppression/map/while/MultiClassNonMaxSuppression/range"
  input: "Postprocessor/BatchMultiClassNonMaxSuppression/map/while/MultiClassNonMaxSuppression/Gather_1/GatherV2_1/axis"
  attr {
    key: "Taxis"
    value {
      type: DT_INT32
    }
  }
  attr {
    key: "Tindices"
    value {
      type: DT_INT32
    }
  }
  attr {
    key: "Tparams"
    value {
      type: DT_FLOAT
    }
  }
}
node {
  name: "Postprocessor/BatchMultiClassNonMaxSuppression/map/while/PadOrClipBoxList/Shape_2"
  op: "Shape"
  input: "Postprocessor/BatchMultiClassNonMaxSuppression/map/while/MultiClassNonMaxSuppression/Gather_1/GatherV2_1"
  attr {
    key: "T"
    value {
      type: DT_FLOAT
    }
  }
  attr {
    key: "out_type"
    value {
      type: DT_INT32
    }
  }
}
node {
  name: "Postprocessor/BatchMultiClassNonMaxSuppression/map/while/PadOrClipBoxList/strided_slice_4"
  op: "StridedSlice"
  input: "Postprocessor/BatchMultiClassNonMaxSuppression/map/while/PadOrClipBoxList/Shape_2"
  input: "Postprocessor/BatchMultiClassNonMaxSuppression/map/while/PadOrClipBoxList/strided_slice_4/stack"
  input: "Postprocessor/BatchMultiClassNonMaxSuppression/map/while/PadOrClipBoxList/strided_slice_4/stack_1"
  input: "Postprocessor/BatchMultiClassNonMaxSuppression/map/while/PadOrClipBoxList/strided_slice_4/stack_2"
  attr {
    key: "Index"
    value {
      type: DT_INT32
    }
  }
  attr {
    key: "T"
    value {
      type: DT_INT32
    }
  }
  attr {
    key: "begin_mask"
    value {
      i: 0
    }
  }
  attr {
    key: "ellipsis_mask"
    value {
      i: 0
    }
  }
  attr {
    key: "end_mask"
    value {
      i: 0
    }
  }
  attr {
    key: "new_axis_mask"
    value {
      i: 0
    }
  }
  attr {
    key: "shrink_axis_mask"
    value {
      i: 1
    }
  }
}
node {
  name: "Postprocessor/BatchMultiClassNonMaxSuppression/map/while/PadOrClipBoxList/sub_4"
  op: "Sub"
  input: "Postprocessor/BatchMultiClassNonMaxSuppression/map/while/PadOrClipBoxList/strided_slice_4"
  input: "Postprocessor/BatchMultiClassNonMaxSuppression/map/while/PadOrClipBoxList/sub_4/y"
  attr {
    key: "T"
    value {
      type: DT_INT32
    }
  }
}
node {
  name: "Postprocessor/BatchMultiClassNonMaxSuppression/map/while/PadOrClipBoxList/Greater_2"
  op: "Greater"
  input: "Postprocessor/BatchMultiClassNonMaxSuppression/map/while/PadOrClipBoxList/sub_4"
  input: "Postprocessor/BatchMultiClassNonMaxSuppression/map/while/PadOrClipBoxList/Greater_2/y"
  attr {
    key: "T"
    value {
      type: DT_INT32
    }
  }
}
node {
  name: "Postprocessor/BatchMultiClassNonMaxSuppression/map/while/PadOrClipBoxList/Select_2"
  op: "Select"
  input: "Postprocessor/BatchMultiClassNonMaxSuppression/map/while/PadOrClipBoxList/Greater_2"
  input: "Postprocessor/BatchMultiClassNonMaxSuppression/map/while/PadOrClipBoxList/Select_2/t"
  input: "Postprocessor/BatchMultiClassNonMaxSuppression/map/while/PadOrClipBoxList/Select_2/e"
  attr {
    key: "T"
    value {
      type: DT_INT32
    }
  }
}
node {
  name: "Postprocessor/BatchMultiClassNonMaxSuppression/map/while/PadOrClipBoxList/Slice_1/size"
  op: "Pack"
  input: "Postprocessor/BatchMultiClassNonMaxSuppression/map/while/PadOrClipBoxList/Select_2"
  attr {
    key: "N"
    value {
      i: 1
    }
  }
  attr {
    key: "T"
    value {
      type: DT_INT32
    }
  }
  attr {
    key: "axis"
    value {
      i: 0
    }
  }
}
node {
  name: "Postprocessor/BatchMultiClassNonMaxSuppression/map/while/PadOrClipBoxList/Slice_1"
  op: "Slice"
  input: "Postprocessor/BatchMultiClassNonMaxSuppression/map/while/MultiClassNonMaxSuppression/Gather_1/GatherV2_1"
  input: "Postprocessor/BatchMultiClassNonMaxSuppression/map/while/PadOrClipBoxList/zeros_2"
  input: "Postprocessor/BatchMultiClassNonMaxSuppression/map/while/PadOrClipBoxList/Slice_1/size"
  attr {
    key: "Index"
    value {
      type: DT_INT32
    }
  }
  attr {
    key: "T"
    value {
      type: DT_FLOAT
    }
  }
}
node {
  name: "Postprocessor/BatchMultiClassNonMaxSuppression/map/while/PadOrClipBoxList/Shape_3"
  op: "Shape"
  input: "Postprocessor/BatchMultiClassNonMaxSuppression/map/while/PadOrClipBoxList/Slice_1"
  attr {
    key: "T"
    value {
      type: DT_FLOAT
    }
  }
  attr {
    key: "out_type"
    value {
      type: DT_INT32
    }
  }
}
node {
  name: "Postprocessor/BatchMultiClassNonMaxSuppression/map/while/PadOrClipBoxList/strided_slice_5"
  op: "StridedSlice"
  input: "Postprocessor/BatchMultiClassNonMaxSuppression/map/while/PadOrClipBoxList/Shape_3"
  input: "Postprocessor/BatchMultiClassNonMaxSuppression/map/while/PadOrClipBoxList/strided_slice_5/stack"
  input: "Postprocessor/BatchMultiClassNonMaxSuppression/map/while/PadOrClipBoxList/strided_slice_5/stack_1"
  input: "Postprocessor/BatchMultiClassNonMaxSuppression/map/while/PadOrClipBoxList/strided_slice_5/stack_2"
  attr {
    key: "Index"
    value {
      type: DT_INT32
    }
  }
  attr {
    key: "T"
    value {
      type: DT_INT32
    }
  }
  attr {
    key: "begin_mask"
    value {
      i: 0
    }
  }
  attr {
    key: "ellipsis_mask"
    value {
      i: 0
    }
  }
  attr {
    key: "end_mask"
    value {
      i: 0
    }
  }
  attr {
    key: "new_axis_mask"
    value {
      i: 0
    }
  }
  attr {
    key: "shrink_axis_mask"
    value {
      i: 1
    }
  }
}
node {
  name: "Postprocessor/BatchMultiClassNonMaxSuppression/map/while/PadOrClipBoxList/sub_5"
  op: "Sub"
  input: "Postprocessor/BatchMultiClassNonMaxSuppression/map/while/PadOrClipBoxList/sub_5/x"
  input: "Postprocessor/BatchMultiClassNonMaxSuppression/map/while/PadOrClipBoxList/strided_slice_5"
  attr {
    key: "T"
    value {
      type: DT_INT32
    }
  }
}
node {
  name: "Postprocessor/BatchMultiClassNonMaxSuppression/map/while/PadOrClipBoxList/stack_1/values_1"
  op: "Pack"
  input: "Postprocessor/BatchMultiClassNonMaxSuppression/map/while/PadOrClipBoxList/sub_5"
  attr {
    key: "N"
    value {
      i: 1
    }
  }
  attr {
    key: "T"
    value {
      type: DT_INT32
    }
  }
  attr {
    key: "axis"
    value {
      i: 0
    }
  }
}
node {
  name: "Postprocessor/BatchMultiClassNonMaxSuppression/map/while/PadOrClipBoxList/stack_1"
  op: "Pack"
  input: "Postprocessor/BatchMultiClassNonMaxSuppression/map/while/PadOrClipBoxList/zeros_3"
  input: "Postprocessor/BatchMultiClassNonMaxSuppression/map/while/PadOrClipBoxList/stack_1/values_1"
  attr {
    key: "N"
    value {
      i: 2
    }
  }
  attr {
    key: "T"
    value {
      type: DT_INT32
    }
  }
  attr {
    key: "axis"
    value {
      i: 1
    }
  }
}
node {
  name: "Postprocessor/BatchMultiClassNonMaxSuppression/map/while/PadOrClipBoxList/Pad_1"
  op: "Pad"
  input: "Postprocessor/BatchMultiClassNonMaxSuppression/map/while/PadOrClipBoxList/Slice_1"
  input: "Postprocessor/BatchMultiClassNonMaxSuppression/map/while/PadOrClipBoxList/stack_1"
  attr {
    key: "T"
    value {
      type: DT_FLOAT
    }
  }
  attr {
    key: "Tpaddings"
    value {
      type: DT_INT32
    }
  }
}
node {
  name: "Postprocessor/BatchMultiClassNonMaxSuppression/map/while/TensorArrayWrite_2/TensorArrayWriteV3"
  op: "TensorArrayWriteV3"
  input: "Postprocessor/BatchMultiClassNonMaxSuppression/map/while/TensorArrayWrite_2/TensorArrayWriteV3/Enter"
  input: "Postprocessor/BatchMultiClassNonMaxSuppression/map/while/Identity_1"
  input: "Postprocessor/BatchMultiClassNonMaxSuppression/map/while/PadOrClipBoxList/Pad_1"
  input: "Postprocessor/BatchMultiClassNonMaxSuppression/map/while/Identity_4"
  attr {
    key: "T"
    value {
      type: DT_FLOAT
    }
  }
  attr {
    key: "_class"
    value {
      list {
        s: "loc:@Postprocessor/BatchMultiClassNonMaxSuppression/map/while/PadOrClipBoxList/Pad_1"
      }
    }
  }
}
node {
  name: "Postprocessor/BatchMultiClassNonMaxSuppression/map/while/NextIteration_4"
  op: "NextIteration"
  input: "Postprocessor/BatchMultiClassNonMaxSuppression/map/while/TensorArrayWrite_2/TensorArrayWriteV3"
  attr {
    key: "T"
    value {
      type: DT_FLOAT
    }
  }
}
node {
  name: "Postprocessor/BatchMultiClassNonMaxSuppression/map/while/MultiClassNonMaxSuppression/Gather_1/GatherV2"
  op: "GatherV2"
  input: "Postprocessor/BatchMultiClassNonMaxSuppression/map/while/MultiClassNonMaxSuppression/ClipToWindow/Gather/GatherV2"
  input: "Postprocessor/BatchMultiClassNonMaxSuppression/map/while/MultiClassNonMaxSuppression/range"
  input: "Postprocessor/BatchMultiClassNonMaxSuppression/map/while/MultiClassNonMaxSuppression/Gather_1/GatherV2/axis"
  attr {
    key: "Taxis"
    value {
      type: DT_INT32
    }
  }
  attr {
    key: "Tindices"
    value {
      type: DT_INT32
    }
  }
  attr {
    key: "Tparams"
    value {
      type: DT_FLOAT
    }
  }
}
node {
  name: "Postprocessor/BatchMultiClassNonMaxSuppression/map/while/Shape"
  op: "Shape"
  input: "Postprocessor/BatchMultiClassNonMaxSuppression/map/while/MultiClassNonMaxSuppression/Gather_1/GatherV2"
  attr {
    key: "T"
    value {
      type: DT_FLOAT
    }
  }
  attr {
    key: "out_type"
    value {
      type: DT_INT32
    }
  }
}
node {
  name: "Postprocessor/BatchMultiClassNonMaxSuppression/map/while/strided_slice"
  op: "StridedSlice"
  input: "Postprocessor/BatchMultiClassNonMaxSuppression/map/while/Shape"
  input: "Postprocessor/BatchMultiClassNonMaxSuppression/map/while/strided_slice/stack"
  input: "Postprocessor/BatchMultiClassNonMaxSuppression/map/while/strided_slice/stack_1"
  input: "Postprocessor/BatchMultiClassNonMaxSuppression/map/while/strided_slice/stack_2"
  attr {
    key: "Index"
    value {
      type: DT_INT32
    }
  }
  attr {
    key: "T"
    value {
      type: DT_INT32
    }
  }
  attr {
    key: "begin_mask"
    value {
      i: 0
    }
  }
  attr {
    key: "ellipsis_mask"
    value {
      i: 0
    }
  }
  attr {
    key: "end_mask"
    value {
      i: 0
    }
  }
  attr {
    key: "new_axis_mask"
    value {
      i: 0
    }
  }
  attr {
    key: "shrink_axis_mask"
    value {
      i: 1
    }
  }
}
node {
  name: "Postprocessor/BatchMultiClassNonMaxSuppression/map/while/TensorArrayWrite_4/TensorArrayWriteV3"
  op: "TensorArrayWriteV3"
  input: "Postprocessor/BatchMultiClassNonMaxSuppression/map/while/TensorArrayWrite_4/TensorArrayWriteV3/Enter"
  input: "Postprocessor/BatchMultiClassNonMaxSuppression/map/while/Identity_1"
  input: "Postprocessor/BatchMultiClassNonMaxSuppression/map/while/strided_slice"
  input: "Postprocessor/BatchMultiClassNonMaxSuppression/map/while/Identity_6"
  attr {
    key: "T"
    value {
      type: DT_INT32
    }
  }
  attr {
    key: "_class"
    value {
      list {
        s: "loc:@Postprocessor/BatchMultiClassNonMaxSuppression/map/while/strided_slice"
      }
    }
  }
}
node {
  name: "Postprocessor/BatchMultiClassNonMaxSuppression/map/while/NextIteration_6"
  op: "NextIteration"
  input: "Postprocessor/BatchMultiClassNonMaxSuppression/map/while/TensorArrayWrite_4/TensorArrayWriteV3"
  attr {
    key: "T"
    value {
      type: DT_FLOAT
    }
  }
}
node {
  name: "Postprocessor/BatchMultiClassNonMaxSuppression/map/while/PadOrClipBoxList/Shape"
  op: "Shape"
  input: "Postprocessor/BatchMultiClassNonMaxSuppression/map/while/MultiClassNonMaxSuppression/Gather_1/GatherV2"
  attr {
    key: "T"
    value {
      type: DT_FLOAT
    }
  }
  attr {
    key: "out_type"
    value {
      type: DT_INT32
    }
  }
}
node {
  name: "Postprocessor/BatchMultiClassNonMaxSuppression/map/while/PadOrClipBoxList/strided_slice_1"
  op: "StridedSlice"
  input: "Postprocessor/BatchMultiClassNonMaxSuppression/map/while/PadOrClipBoxList/Shape"
  input: "Postprocessor/BatchMultiClassNonMaxSuppression/map/while/PadOrClipBoxList/strided_slice_1/stack"
  input: "Postprocessor/BatchMultiClassNonMaxSuppression/map/while/PadOrClipBoxList/strided_slice_1/stack_1"
  input: "Postprocessor/BatchMultiClassNonMaxSuppression/map/while/PadOrClipBoxList/strided_slice_1/stack_2"
  attr {
    key: "Index"
    value {
      type: DT_INT32
    }
  }
  attr {
    key: "T"
    value {
      type: DT_INT32
    }
  }
  attr {
    key: "begin_mask"
    value {
      i: 0
    }
  }
  attr {
    key: "ellipsis_mask"
    value {
      i: 0
    }
  }
  attr {
    key: "end_mask"
    value {
      i: 0
    }
  }
  attr {
    key: "new_axis_mask"
    value {
      i: 0
    }
  }
  attr {
    key: "shrink_axis_mask"
    value {
      i: 1
    }
  }
}
node {
  name: "Postprocessor/BatchMultiClassNonMaxSuppression/map/while/PadOrClipBoxList/sub_1"
  op: "Sub"
  input: "Postprocessor/BatchMultiClassNonMaxSuppression/map/while/PadOrClipBoxList/strided_slice_1"
  input: "Postprocessor/BatchMultiClassNonMaxSuppression/map/while/PadOrClipBoxList/sub_1/y"
  attr {
    key: "T"
    value {
      type: DT_INT32
    }
  }
}
node {
  name: "Postprocessor/BatchMultiClassNonMaxSuppression/map/while/PadOrClipBoxList/Greater_1"
  op: "Greater"
  input: "Postprocessor/BatchMultiClassNonMaxSuppression/map/while/PadOrClipBoxList/sub_1"
  input: "Postprocessor/BatchMultiClassNonMaxSuppression/map/while/PadOrClipBoxList/Greater_1/y"
  attr {
    key: "T"
    value {
      type: DT_INT32
    }
  }
}
node {
  name: "Postprocessor/BatchMultiClassNonMaxSuppression/map/while/PadOrClipBoxList/Select_1"
  op: "Select"
  input: "Postprocessor/BatchMultiClassNonMaxSuppression/map/while/PadOrClipBoxList/Greater_1"
  input: "Postprocessor/BatchMultiClassNonMaxSuppression/map/while/PadOrClipBoxList/Select_1/t"
  input: "Postprocessor/BatchMultiClassNonMaxSuppression/map/while/PadOrClipBoxList/Select_1/e"
  attr {
    key: "T"
    value {
      type: DT_INT32
    }
  }
}
node {
  name: "Postprocessor/BatchMultiClassNonMaxSuppression/map/while/PadOrClipBoxList/strided_slice"
  op: "StridedSlice"
  input: "Postprocessor/BatchMultiClassNonMaxSuppression/map/while/PadOrClipBoxList/Shape"
  input: "Postprocessor/BatchMultiClassNonMaxSuppression/map/while/PadOrClipBoxList/strided_slice/stack"
  input: "Postprocessor/BatchMultiClassNonMaxSuppression/map/while/PadOrClipBoxList/strided_slice/stack_1"
  input: "Postprocessor/BatchMultiClassNonMaxSuppression/map/while/PadOrClipBoxList/strided_slice/stack_2"
  attr {
    key: "Index"
    value {
      type: DT_INT32
    }
  }
  attr {
    key: "T"
    value {
      type: DT_INT32
    }
  }
  attr {
    key: "begin_mask"
    value {
      i: 0
    }
  }
  attr {
    key: "ellipsis_mask"
    value {
      i: 0
    }
  }
  attr {
    key: "end_mask"
    value {
      i: 0
    }
  }
  attr {
    key: "new_axis_mask"
    value {
      i: 0
    }
  }
  attr {
    key: "shrink_axis_mask"
    value {
      i: 1
    }
  }
}
node {
  name: "Postprocessor/BatchMultiClassNonMaxSuppression/map/while/PadOrClipBoxList/sub"
  op: "Sub"
  input: "Postprocessor/BatchMultiClassNonMaxSuppression/map/while/PadOrClipBoxList/strided_slice"
  input: "Postprocessor/BatchMultiClassNonMaxSuppression/map/while/PadOrClipBoxList/sub/y"
  attr {
    key: "T"
    value {
      type: DT_INT32
    }
  }
}
node {
  name: "Postprocessor/BatchMultiClassNonMaxSuppression/map/while/PadOrClipBoxList/Greater"
  op: "Greater"
  input: "Postprocessor/BatchMultiClassNonMaxSuppression/map/while/PadOrClipBoxList/sub"
  input: "Postprocessor/BatchMultiClassNonMaxSuppression/map/while/PadOrClipBoxList/Greater/y"
  attr {
    key: "T"
    value {
      type: DT_INT32
    }
  }
}
node {
  name: "Postprocessor/BatchMultiClassNonMaxSuppression/map/while/PadOrClipBoxList/Select"
  op: "Select"
  input: "Postprocessor/BatchMultiClassNonMaxSuppression/map/while/PadOrClipBoxList/Greater"
  input: "Postprocessor/BatchMultiClassNonMaxSuppression/map/while/PadOrClipBoxList/Select/t"
  input: "Postprocessor/BatchMultiClassNonMaxSuppression/map/while/PadOrClipBoxList/Select/e"
  attr {
    key: "T"
    value {
      type: DT_INT32
    }
  }
}
node {
  name: "Postprocessor/BatchMultiClassNonMaxSuppression/map/while/PadOrClipBoxList/Slice/size"
  op: "Pack"
  input: "Postprocessor/BatchMultiClassNonMaxSuppression/map/while/PadOrClipBoxList/Select"
  input: "Postprocessor/BatchMultiClassNonMaxSuppression/map/while/PadOrClipBoxList/Select_1"
  attr {
    key: "N"
    value {
      i: 2
    }
  }
  attr {
    key: "T"
    value {
      type: DT_INT32
    }
  }
  attr {
    key: "axis"
    value {
      i: 0
    }
  }
}
node {
  name: "Postprocessor/BatchMultiClassNonMaxSuppression/map/while/PadOrClipBoxList/Slice"
  op: "Slice"
  input: "Postprocessor/BatchMultiClassNonMaxSuppression/map/while/MultiClassNonMaxSuppression/Gather_1/GatherV2"
  input: "Postprocessor/BatchMultiClassNonMaxSuppression/map/while/PadOrClipBoxList/zeros"
  input: "Postprocessor/BatchMultiClassNonMaxSuppression/map/while/PadOrClipBoxList/Slice/size"
  attr {
    key: "Index"
    value {
      type: DT_INT32
    }
  }
  attr {
    key: "T"
    value {
      type: DT_FLOAT
    }
  }
}
node {
  name: "Postprocessor/BatchMultiClassNonMaxSuppression/map/while/PadOrClipBoxList/Shape_1"
  op: "Shape"
  input: "Postprocessor/BatchMultiClassNonMaxSuppression/map/while/PadOrClipBoxList/Slice"
  attr {
    key: "T"
    value {
      type: DT_FLOAT
    }
  }
  attr {
    key: "out_type"
    value {
      type: DT_INT32
    }
  }
}
node {
  name: "Postprocessor/BatchMultiClassNonMaxSuppression/map/while/PadOrClipBoxList/strided_slice_3"
  op: "StridedSlice"
  input: "Postprocessor/BatchMultiClassNonMaxSuppression/map/while/PadOrClipBoxList/Shape_1"
  input: "Postprocessor/BatchMultiClassNonMaxSuppression/map/while/PadOrClipBoxList/strided_slice_3/stack"
  input: "Postprocessor/BatchMultiClassNonMaxSuppression/map/while/PadOrClipBoxList/strided_slice_3/stack_1"
  input: "Postprocessor/BatchMultiClassNonMaxSuppression/map/while/PadOrClipBoxList/strided_slice_3/stack_2"
  attr {
    key: "Index"
    value {
      type: DT_INT32
    }
  }
  attr {
    key: "T"
    value {
      type: DT_INT32
    }
  }
  attr {
    key: "begin_mask"
    value {
      i: 0
    }
  }
  attr {
    key: "ellipsis_mask"
    value {
      i: 0
    }
  }
  attr {
    key: "end_mask"
    value {
      i: 0
    }
  }
  attr {
    key: "new_axis_mask"
    value {
      i: 0
    }
  }
  attr {
    key: "shrink_axis_mask"
    value {
      i: 1
    }
  }
}
node {
  name: "Postprocessor/BatchMultiClassNonMaxSuppression/map/while/PadOrClipBoxList/sub_3"
  op: "Sub"
  input: "Postprocessor/BatchMultiClassNonMaxSuppression/map/while/PadOrClipBoxList/sub_3/x"
  input: "Postprocessor/BatchMultiClassNonMaxSuppression/map/while/PadOrClipBoxList/strided_slice_3"
  attr {
    key: "T"
    value {
      type: DT_INT32
    }
  }
}
node {
  name: "Postprocessor/BatchMultiClassNonMaxSuppression/map/while/PadOrClipBoxList/strided_slice_2"
  op: "StridedSlice"
  input: "Postprocessor/BatchMultiClassNonMaxSuppression/map/while/PadOrClipBoxList/Shape_1"
  input: "Postprocessor/BatchMultiClassNonMaxSuppression/map/while/PadOrClipBoxList/strided_slice_2/stack"
  input: "Postprocessor/BatchMultiClassNonMaxSuppression/map/while/PadOrClipBoxList/strided_slice_2/stack_1"
  input: "Postprocessor/BatchMultiClassNonMaxSuppression/map/while/PadOrClipBoxList/strided_slice_2/stack_2"
  attr {
    key: "Index"
    value {
      type: DT_INT32
    }
  }
  attr {
    key: "T"
    value {
      type: DT_INT32
    }
  }
  attr {
    key: "begin_mask"
    value {
      i: 0
    }
  }
  attr {
    key: "ellipsis_mask"
    value {
      i: 0
    }
  }
  attr {
    key: "end_mask"
    value {
      i: 0
    }
  }
  attr {
    key: "new_axis_mask"
    value {
      i: 0
    }
  }
  attr {
    key: "shrink_axis_mask"
    value {
      i: 1
    }
  }
}
node {
  name: "Postprocessor/BatchMultiClassNonMaxSuppression/map/while/PadOrClipBoxList/sub_2"
  op: "Sub"
  input: "Postprocessor/BatchMultiClassNonMaxSuppression/map/while/PadOrClipBoxList/sub_2/x"
  input: "Postprocessor/BatchMultiClassNonMaxSuppression/map/while/PadOrClipBoxList/strided_slice_2"
  attr {
    key: "T"
    value {
      type: DT_INT32
    }
  }
}
node {
  name: "Postprocessor/BatchMultiClassNonMaxSuppression/map/while/PadOrClipBoxList/stack/values_1"
  op: "Pack"
  input: "Postprocessor/BatchMultiClassNonMaxSuppression/map/while/PadOrClipBoxList/sub_2"
  input: "Postprocessor/BatchMultiClassNonMaxSuppression/map/while/PadOrClipBoxList/sub_3"
  attr {
    key: "N"
    value {
      i: 2
    }
  }
  attr {
    key: "T"
    value {
      type: DT_INT32
    }
  }
  attr {
    key: "axis"
    value {
      i: 0
    }
  }
}
node {
  name: "Postprocessor/BatchMultiClassNonMaxSuppression/map/while/PadOrClipBoxList/stack"
  op: "Pack"
  input: "Postprocessor/BatchMultiClassNonMaxSuppression/map/while/PadOrClipBoxList/zeros_1"
  input: "Postprocessor/BatchMultiClassNonMaxSuppression/map/while/PadOrClipBoxList/stack/values_1"
  attr {
    key: "N"
    value {
      i: 2
    }
  }
  attr {
    key: "T"
    value {
      type: DT_INT32
    }
  }
  attr {
    key: "axis"
    value {
      i: 1
    }
  }
}
node {
  name: "Postprocessor/BatchMultiClassNonMaxSuppression/map/while/PadOrClipBoxList/Pad"
  op: "Pad"
  input: "Postprocessor/BatchMultiClassNonMaxSuppression/map/while/PadOrClipBoxList/Slice"
  input: "Postprocessor/BatchMultiClassNonMaxSuppression/map/while/PadOrClipBoxList/stack"
  attr {
    key: "T"
    value {
      type: DT_FLOAT
    }
  }
  attr {
    key: "Tpaddings"
    value {
      type: DT_INT32
    }
  }
}
node {
  name: "Postprocessor/BatchMultiClassNonMaxSuppression/map/while/TensorArrayWrite/TensorArrayWriteV3"
  op: "TensorArrayWriteV3"
  input: "Postprocessor/BatchMultiClassNonMaxSuppression/map/while/TensorArrayWrite/TensorArrayWriteV3/Enter"
  input: "Postprocessor/BatchMultiClassNonMaxSuppression/map/while/Identity_1"
  input: "Postprocessor/BatchMultiClassNonMaxSuppression/map/while/PadOrClipBoxList/Pad"
  input: "Postprocessor/BatchMultiClassNonMaxSuppression/map/while/Identity_2"
  attr {
    key: "T"
    value {
      type: DT_FLOAT
    }
  }
  attr {
    key: "_class"
    value {
      list {
        s: "loc:@Postprocessor/BatchMultiClassNonMaxSuppression/map/while/PadOrClipBoxList/Pad"
      }
    }
  }
}
node {
  name: "Postprocessor/BatchMultiClassNonMaxSuppression/map/while/NextIteration_2"
  op: "NextIteration"
  input: "Postprocessor/BatchMultiClassNonMaxSuppression/map/while/TensorArrayWrite/TensorArrayWriteV3"
  attr {
    key: "T"
    value {
      type: DT_FLOAT
    }
  }
}
node {
  name: "Preprocessor/map/while/Identity_2"
  op: "Identity"
  input: "Preprocessor/map/while/Switch_2:1"
  attr {
    key: "T"
    value {
      type: DT_FLOAT
    }
  }
}
node {
  name: "Preprocessor/map/TensorArray"
  op: "TensorArrayV3"
  input: "Preprocessor/map/strided_slice"
  attr {
    key: "clear_after_read"
    value {
      b: true
    }
  }
  attr {
    key: "dtype"
    value {
      type: DT_FLOAT
    }
  }
  attr {
    key: "dynamic_size"
    value {
      b: false
    }
  }
  attr {
    key: "element_shape"
    value {
      shape {
        unknown_rank: true
      }
    }
  }
  attr {
    key: "identical_element_shapes"
    value {
      b: true
    }
  }
  attr {
    key: "tensor_array_name"
    value {
      s: ""
    }
  }
}
node {
  name: "Preprocessor/map/while/TensorArrayReadV3/Enter"
  op: "Enter"
  input: "Preprocessor/map/TensorArray"
  attr {
    key: "T"
    value {
      type: 20
    }
  }
  attr {
    key: "frame_name"
    value {
      s: "Preprocessor/map/while/while_context"
    }
  }
  attr {
    key: "is_constant"
    value {
      b: true
    }
  }
  attr {
    key: "parallel_iterations"
    value {
      i: 32
    }
  }
}
node {
  name: "Preprocessor/map/TensorArrayUnstack/TensorArrayScatter/TensorArrayScatterV3"
  op: "TensorArrayScatterV3"
  input: "Preprocessor/map/TensorArray"
  input: "Preprocessor/map/TensorArrayUnstack/range"
  input: "ToFloat"
  input: "Preprocessor/map/TensorArray:1"
  attr {
    key: "T"
    value {
      type: DT_FLOAT
    }
  }
  attr {
    key: "_class"
    value {
      list {
        s: "loc:@ToFloat"
      }
    }
  }
}
node {
  name: "Preprocessor/map/while/TensorArrayReadV3/Enter_1"
  op: "Enter"
  input: "Preprocessor/map/TensorArrayUnstack/TensorArrayScatter/TensorArrayScatterV3"
  attr {
    key: "T"
    value {
      type: DT_FLOAT
    }
  }
  attr {
    key: "frame_name"
    value {
      s: "Preprocessor/map/while/while_context"
    }
  }
  attr {
    key: "is_constant"
    value {
      b: true
    }
  }
  attr {
    key: "parallel_iterations"
    value {
      i: 32
    }
  }
}
node {
  name: "Preprocessor/map/while/TensorArrayReadV3"
  op: "TensorArrayReadV3"
  input: "Preprocessor/map/while/TensorArrayReadV3/Enter"
  input: "Preprocessor/map/while/Identity_1"
  input: "Preprocessor/map/while/TensorArrayReadV3/Enter_1"
  attr {
    key: "dtype"
    value {
      type: DT_FLOAT
    }
  }
}
node {
  name: "Preprocessor/map/while/ResizeImage/resize_images/ExpandDims"
  op: "ExpandDims"
  input: "Preprocessor/map/while/TensorArrayReadV3"
  input: "Preprocessor/map/while/ResizeImage/resize_images/ExpandDims/dim"
  attr {
    key: "T"
    value {
      type: DT_FLOAT
    }
  }
  attr {
    key: "Tdim"
    value {
      type: DT_INT32
    }
  }
}
node {
  name: "Preprocessor/map/while/ResizeImage/resize_images/ResizeBilinear"
  op: "ResizeBilinear"
  input: "Preprocessor/map/while/ResizeImage/resize_images/ExpandDims"
  input: "Preprocessor/map/while/ResizeImage/stack"
  attr {
    key: "T"
    value {
      type: DT_FLOAT
    }
  }
  attr {
    key: "align_corners"
    value {
      b: false
    }
  }
}
node {
  name: "Preprocessor/map/while/ResizeImage/resize_images/Squeeze"
  op: "Squeeze"
  input: "Preprocessor/map/while/ResizeImage/resize_images/ResizeBilinear"
  attr {
    key: "T"
    value {
      type: DT_FLOAT
    }
  }
  attr {
    key: "squeeze_dims"
    value {
      list {
        i: 0
      }
    }
  }
}
node {
  name: "Preprocessor/map/while/TensorArrayWrite/TensorArrayWriteV3"
  op: "TensorArrayWriteV3"
  input: "Preprocessor/map/while/TensorArrayWrite/TensorArrayWriteV3/Enter"
  input: "Preprocessor/map/while/Identity_1"
  input: "Preprocessor/map/while/ResizeImage/resize_images/Squeeze"
  input: "Preprocessor/map/while/Identity_2"
  attr {
    key: "T"
    value {
      type: DT_FLOAT
    }
  }
  attr {
    key: "_class"
    value {
      list {
        s: "loc:@Preprocessor/map/while/ResizeImage/resize_images/Squeeze"
      }
    }
  }
}
node {
  name: "Preprocessor/map/while/NextIteration_2"
  op: "NextIteration"
  input: "Preprocessor/map/while/TensorArrayWrite/TensorArrayWriteV3"
  attr {
    key: "T"
    value {
      type: DT_FLOAT
    }
  }
}
library {
}
